saved_weights/best_model_2000.pt (torch, 702661 bytes, 10 tensors)

conv.weight f4 [16, 2, 3]
0	0xbe3af7a9	-0.18258537
1	0xbdbcd826	-0.092209145
2	0x3e45f401	0.19331361
3	0x3da5380e	0.08067332
4	0x3b35238c	0.0027639596
5	0xbea702a7	-0.3261921
6	0x3e1a1798	0.15048063
7	0xbe275166	-0.16339645
8	0xbdcc8c0c	-0.09987649
9	0xbd9882f4	-0.07446852
10	0xbdda9370	-0.10672653
11	0x3ea67a24	0.3251506
12	0x3e1566de	0.14590022
13	0x3ebb99e7	0.36640856
14	0xbe8647a6	-0.26226538
15	0x3d69761c	0.056997404
16	0xbc4c5660	-0.012471765
17	0x3f08b120	0.5339527
18	0xbd2f0619	-0.042730425
19	0x3e660829	0.2246405
20	0xbd1fb522	-0.0389911
21	0xbe99e124	-0.3005458
22	0xbe6533cf	-0.22383045
23	0x3ed34a4f	0.4126763
24	0x3e9b76cb	0.3036407
25	0xbde2a342	-0.11066295
26	0xbdb1806a	-0.08667071
27	0xbed0379a	-0.4066742
28	0x3e1e776c	0.15475243
29	0x3ec3a4a1	0.3821154
30	0x3e12449c	0.14283985
31	0xbe6b2647	-0.2296382
32	0x3e57c9ba	0.21073046
33	0x3e75645f	0.2396407
34	0x3e9d7a17	0.3075721
35	0xbe7c6eaf	-0.24651597
36	0xbea01d22	-0.31272227
37	0xbe71dab5	-0.23618586
38	0xbeb0031c	-0.34377372
39	0x3bd30700	0.0064400434
40	0xbbd00a80	-0.006348908
41	0xbe9c6406	-0.30545062
42	0x3e1e100c	0.15435809
43	0x3e13d2ec	0.14435929
44	0xbd738058	-0.05944857
45	0x3ddb85d8	0.10718888
46	0xbd8d3ef0	-0.0689677
47	0xbd87b624	-0.066265374
48	0xbe4cb330	-0.1999023
49	0xbd452675	-0.04813238
50	0x3e90ff4e	0.28319782
51	0xbd95ed44	-0.073206455
52	0x3e8a07b1	0.26958993
53	0x3f01d44a	0.5071455
54	0xbc7dd426	-0.015492475
55	0xbeccc3d5	-0.39993158
56	0xbe85515a	-0.2603863
57	0x3e86e17f	0.26343915
58	0x3db56039	0.08856244
59	0xbe9b86ab	-0.3037618
60	0x3ea13da6	0.31492347
61	0xbdae6469	-0.085152455
62	0x3dd82552	0.10553993
63	0xbee2ac58	-0.44272113
64	0xbe50ce47	-0.20391189
65	0xbecf92a0	-0.40541553
66	0xbe5981ff	-0.21240996
67	0x3e9e281c	0.30889976
68	0xbe59ba14	-0.2126239
69	0xbe843377	-0.25820515
70	0xbe624276	-0.22095665
71	0x3de2b028	0.110687554
72	0x3e53554b	0.20638005
73	0x3e66479a	0.22488251
74	0xbe598e58	-0.21245706
75	0x3f0979f4	0.5370171
76	0x3d9c524b	0.07632884
77	0x3ebdffe7	0.371093
78	0xbdd0595f	-0.10173296
79	0x3ea8bc8c	0.3295635
80	0x3c2b1940	0.010443032
81	0x3e42e74f	0.1903355
82	0x3e90f737	0.2831361
83	0x3eb4e4cf	0.35330817
84	0xbe392364	-0.18079907
85	0x3df998d9	0.121873565
86	0x3b154ed4	0.002278258
87	0xbee10d6b	-0.4395555
88	0xbead54bc	-0.3385371
89	0x3d2ac212	0.041688986
90	0x3ea02e12	0.3128515
91	0x3e5d2676	0.21596703
92	0xbeb96524	-0.36209977
93	0xbee69615	-0.45036379
94	0x3d8a3acd	0.067494966
95	0x3bc1b3b0	0.005911313

conv.bias f4 [16]
0	0x3e3d0a20	0.18460894
1	0xbe8aa065	-0.27075496
2	0xbe0366a3	-0.12832122
3	0x3e1c4818	0.15261877
4	0xbd8880da	-0.066652015
5	0xbe770e57	-0.24126564
6	0xbc19ffe0	-0.009399384
7	0xbea00f18	-0.31261516
8	0xbe6ec306	-0.23316583
9	0x3e229ae5	0.158794
10	0x3d863694	0.06553379
11	0xbe39b643	-0.18135934
12	0xbe3deef5	-0.18548186
13	0xbe71beca	-0.23607937
14	0x3e8a914c	0.27063978
15	0xbceea2f2	-0.029130433

dense.0.weight f4 [128, 1280]
0	0xbd12630d	-0.035738993
1	0xbc54e284	-0.012993459
2	0x3c61a695	0.013772626
3	0x3c1b7818	0.009489082
4	0xba602913	-0.00085510424
5	0xbcd129a7	-0.025532557
6	0x3c286faa	0.010280529
7	0x3c8d07ed	0.017215693
8	0xbc179ddc	-0.009253945
9	0xbcbd8ac0	-0.02313745
10	0xbcc27602	-0.023737911
11	0xbd0c19c8	-0.034204274
12	0x3be2a267	0.0069163325
13	0x3c65f437	0.014035276
14	0x3c25285a	0.010080421
15	0xb86ce0d4	-5.6476172e-05
16	0xbc04c2f3	-0.00810312
17	0x3bc0f4d0	0.005888559
18	0xbd0f8d5c	-0.03504692
19	0xbb9b4559	-0.0047384915
20	0xbc4d4b92	-0.012530224
21	0x3c406234	0.011742163
22	0xbbde72e3	-0.006788598
23	0x3a990ee5	0.0011677413
24	0xbc9970af	-0.01873049
25	0xbcfa6c3c	-0.030569188
26	0xbc49ec62	-0.012324424
27	0xbcb25ef7	-0.021773798
28	0x3bcd64ad	0.006268105
29	0xbbdb3a5b	-0.006690306
30	0xbca5fafe	-0.020261284
31	0xbc8066d3	-0.01567403
32	0x3c94c08a	0.018158216
33	0x3c997af9	0.018735396
34	0x3c6ee5dc	0.01458117
35	0x3c1d9acd	0.009619427
36	0xbc5effed	-0.013610822
37	0x3c978d30	0.01849994
38	0xba6df833	-0.0009077817
39	0xbcb241ca	-0.021759886
40	0xbc0fcde6	-0.008777117
41	0xbcbc00e4	-0.022949643
42	0xbcb8de0a	-0.022566814
43	0xbcd7b8fc	-0.026333325
44	0xbbce05bb	-0.006287304
45	0x3c039706	0.008031612
46	0xbd12c9d1	-0.035837
47	0x3c58d988	0.013235457
48	0xbd015377	-0.03157374
49	0x3c929495	0.017893115
50	0x3c9e77dd	0.019344265
51	0xbcadccba	-0.021215785
52	0x3bc4264c	0.0059860107
53	0xbc9ebd59	-0.019377397
54	0x3b9b8087	0.0047455463
55	0xbc6b2f63	-0.01435456
56	0x3aa0465e	0.0012228002
57	0x3b1c9946	0.002389507
58	0x3b0ea08c	0.0021763174
59	0x3ca06be8	0.019582704
60	0xbb7d6831	-0.003866684
61	0x3aff7a5e	0.0019491424
62	0xb9d0dce3	-0.00039837425
63	0x3c45758d	0.012051952
64	0xbc47354e	-0.012158705
65	0x3a400f43	0.0007326493
66	0x3bbaf419	0.0057053682
67	0xbb04949c	-0.002023018
68	0xbc86579c	-0.016399197
69	0xbcfeb375	-0.031091431
70	0xbc94aad0	-0.018147856
71	0xbb5b4167	-0.003345573
72	0xbc75b70e	-0.014997257
73	0x3b521a00	0.0032058954
74	0x3b3a395d	0.002841554
75	0x3c8d9a5d	0.01728552
76	0xbc9d7dde	-0.019225057
77	0xbccb0910	-0.024784595
78	0x3c6272c2	0.013821306
79	0x3c16e6a3	0.0092102615
80	0xbc011072	-0.007877456
81	0xbce33a41	-0.027737739
82	0xbc486ba0	-0.012232691
83	0x3c9bd01c	0.019020133
84	0xbcb87a74	-0.022519328
85	0xb9096380	-0.00013102405
86	0x3c6fd85c	0.014638986
87	0xbcaf07dc	-0.021366052
88	0xbcd6e7f3	-0.026233649
89	0xbb977b58	-0.004622858
90	0x3c140724	0.009034906
91	0x3cc63fe6	0.024200391
92	0x3b4de178	0.0031414907
93	0xbc7d7adc	-0.0154711865
94	0xbc4b128e	-0.0123945605
95	0x3c8f0c96	0.017462056
96	0x3b8c0070	0.004272513
97	0x3c850828	0.01623924
98	0xbcc19146	-0.023628842
99	0x3b7d7060	0.0038671717
100	0xbba58ec4	-0.0050524194
101	0xbbd95c64	-0.0066333283
102	0xbce08ae3	-0.027409976
103	0xbcba4fc3	-0.022743111
104	0xbc7c1997	-0.0153869605
105	0x3c9b13a4	0.018930264
106	0x3cc316be	0.023814555
107	0xbbe16d40	-0.0068794787
108	0x3bfb0d48	0.0076614954
109	0x3ca1758e	0.019709375
110	0x3cda97fe	0.026683804
111	0xbcc5d914	-0.024151362
112	0x3cb26cda	0.02178042
113	0x3c3e8930	0.011629388
114	0x3c73360c	0.014844429
115	0x3cccf656	0.025019806
116	0x3bbd1d18	0.0057712905
117	0xbca67aa3	-0.02032215
118	0xbc9e6178	-0.019333586
119	0x3a9adda0	0.0011815317
120	0xbcba4fdc	-0.022743158
121	0xbb74f698	-0.0037378427
122	0x3c1638f4	0.009168852
123	0x3b8d03e0	0.0043034405
124	0x3c9ea0b2	0.019363735
125	0x3ad531a0	0.00162654
126	0xbaa76100	-0.0012769997
127	0x3c0c3bac	0.008559149
128	0x3c63eb80	0.013911128
129	0x3cdeceac	0.027198158
130	0xbc97b089	-0.018516796
131	0x3c948464	0.018129535
132	0x3c999572	0.018748019
133	0x3c50389c	0.012708809
134	0x3cd35fc6	0.025802504
135	0xbc9f73c2	-0.019464377
136	0x3caa3702	0.020778183
137	0x3b65b770	0.0035051964
138	0x3b54d890	0.0032477714
139	0x3b622040	0.0034504086
140	0xbcc904c0	-0.024538398
141	0xbc10b392	-0.008831875
142	0xbc3392d4	-0.0109602995
143	0x3c87552e	0.016520109
144	0xb9f19140	-0.00046075322
145	0x3cdf6bc0	0.027273059
146	0xbc712043	-0.014717164
147	0xbc6b5bd1	-0.014365152
148	0xbb2b0600	-0.0026096106
149	0xbc66e9cc	-0.014093827
150	0x3c84529c	0.016152672
151	0x3bca1d98	0.0061680786
152	0x3b022fc0	0.0019864887
153	0xbcbc5a92	-0.022992406
154	0x3c55ed50	0.013057068
155	0xbbd10ea4	-0.006379919
156	0x3c4f463c	0.0126510225
157	0x3c764138	0.015030198
158	0xbcd6d1f0	-0.026223153
159	0xbc89b52d	-0.016810024
160	0x3c89d236	0.01682387
161	0xbc9b3ba8	-0.018949345
162	0x3c6abd0c	0.014327299
163	0xbcba422c	-0.022736631
164	0x3b204f10	0.0024461187
165	0xbbd9c9ac	-0.0066463556
166	0x3c5099e0	0.012731999
167	0xbc2dc988	-0.010607131
168	0x3c41b83c	0.01182371
169	0xbca77786	-0.020442735
170	0x3ca32f34	0.01991997
171	0xbc49f158	-0.012325607
172	0x3c4afcf8	0.012389414
173	0x3ad7e790	0.0016472209
174	0x3cde5e1a	0.02714448
175	0xba52e880	-0.00080455095
176	0xbcdac1fc	-0.026703827
177	0xbb92ad48	-0.004476223
178	0x3cd55a58	0.026044056
179	0x3ae9e4c0	0.0017844662
180	0x3b8a91c0	0.0042288005
181	0xbcb4d81c	-0.022075705
182	0x3b659930	0.0035033934
183	0xbcc67d71	-0.024229737
184	0x3be325a0	0.0069319755
185	0xbc5a387f	-0.013319134
186	0xbcc4b769	-0.024013238
187	0x3ca189fa	0.019719113
188	0x3bb90b00	0.0056470633
189	0x3c6f082c	0.014589351
190	0xbb7b7700	-0.003837049
191	0xb8d18500	-9.99067e-05
192	0xbcb74fd9	-0.022376942
193	0x3bdbb4e8	0.0067049153
194	0x3c951424	0.01819808
195	0x3b4e2ac0	0.0031458586
196	0xbca15fe4	-0.019699045
197	0xbcd5b91e	-0.026089247
198	0xbce4fd35	-0.02795277
199	0xbc2c4a27	-0.010515726
200	0xba61ba17	-0.00086107984
201	0xbcc6f841	-0.024288299
202	0xbb307378	-0.0026924293
203	0xbcef2c2c	-0.029195867
204	0xbcba8a76	-0.022771101
205	0xbd122d3e	-0.035687678
206	0xb9201499	-0.00015266462
207	0xbc5c84f6	-0.013459435
208	0xbb875b8b	-0.004130786
209	0xbc09521e	-0.008381395
210	0xbd10c4a4	-0.03534378
211	0xbcaa829b	-0.02081423
212	0x3c77f1ac	0.015133303
213	0x3c5fe838	0.013666205
214	0xbc47de0d	-0.012198937
215	0x3c480234	0.0122075565
216	0x3a1e1dc4	0.0006031657
217	0xbd0ffc09	-0.03515247
218	0xbcf7680f	-0.030200986
219	0xbd11669c	-0.035498247
220	0x3a842e37	0.0010084574
221	0xbc97d17c	-0.018532507
222	0xbd0c1f32	-0.034209438
223	0xbc05e1eb	-0.008171539
224	0xbd042879	-0.03226516
225	0xbcd634f4	-0.026148297
226	0xbcfa7ff4	-0.03057859
227	0xbb549c70	-0.0032441877
228	0xbcb1203c	-0.021621816
229	0x3c863c9f	0.016386328
230	0xbc5461a8	-0.012962736
231	0xbd0e6923	-0.034768235
232	0xbccc69c9	-0.024952786
233	0x3c9d9da8	0.019240215
234	0xbb721e4e	-0.0036944333
235	0xbcb8d60f	-0.022563009
236	0xbcccf6ac	-0.025019966
237	0x3c7664a6	0.015038645
238	0xbc529a63	-0.0128541915
239	0xbce5a740	-0.028033853
240	0x3c2db1d6	0.010601481
241	0xbceb2bce	-0.028707411
242	0x3b10aa9e	0.0022074352
243	0x3ba3fac8	0.0050042607
244	0x3c8f065c	0.017459087
245	0xbc8d41a3	-0.017243212
246	0x3c864a69	0.016392903
247	0xbba0e7f3	-0.004910463
248	0xbcc9a003	-0.024612432
249	0x3c29e6ae	0.01036994
250	0xbc488418	-0.012238525
251	0xbcffd8de	-0.03123134
252	0xbcd49d3b	-0.02595388
253	0xbade43e1	-0.0016957485
254	0xbac1d5e3	-0.0014788475
255	0xbcfd437e	-0.030915972

dense.0.bias f4 [128]
0	0x3c864e8a	0.016394872
1	0xbc0f9cde	-0.008765427
2	0xbd2fb6a7	-0.0428988
3	0x3c94b8c8	0.018154517
4	0xbcd2ca1f	-0.025731144
5	0xb9d02acf	-0.00039704746
6	0xbc4af84f	-0.012388303
7	0xbb2f16fd	-0.0026716583
8	0x3d311b31	0.043238822
9	0xbccf1d71	-0.025282593
10	0x3b932df3	0.0044915616
11	0xbaa19840	-0.0012328699
12	0xbcf6e215	-0.030137101
13	0xbccc9e4c	-0.024977826
14	0xbc3eaa66	-0.011637306
15	0x3cc1d134	0.023659326
16	0xbceb8d70	-0.028753966
17	0x3cabb7c9	0.020961659
18	0xbc817876	-0.01580451
19	0xba26cc00	-0.0006362796
20	0xbca052c3	-0.019570714
21	0xbcfc014f	-0.030762343
22	0xbb7dce03	-0.003872753
23	0xbc2fd7f3	-0.010732639
24	0x3b47c8b9	0.003048463
25	0x3c91ff28	0.017821863
26	0x3c6f28bc	0.014597114
27	0xbc8ce311	-0.017198117
28	0xbb93d1db	-0.0045111007
29	0xbac65320	-0.0015130974
30	0x3d8d7238	0.06906551
31	0x3c846ab3	0.01616416
32	0x3d2c416a	0.04205457
33	0xbc9ea004	-0.01936341
34	0xbc26a987	-0.010172254
35	0xbd32ee5f	-0.04368436
36	0xbd580aae	-0.05274456
37	0xbd01c44b	-0.03168134
38	0x3c6f75f0	0.014615521
39	0x3cafd69f	0.021464644
40	0x3d0e484b	0.034736913
41	0xbc81ab13	-0.015828645
42	0xbc2e9570	-0.010655746
43	0x3cf7277c	0.030170195
44	0x3c0e3dd7	0.008681736
45	0xbbf51213	-0.0074789613
46	0x3c69218d	0.014229191
47	0xbc11af88	-0.008891948
48	0x3d0e3368	0.034716994
49	0xbccb34aa	-0.024805386
50	0xbc7a96bc	-0.015294727
51	0xbcc52c27	-0.024068905
52	0xbcb98f84	-0.022651441
53	0x3d0b24d9	0.033970688
54	0x39da3360	0.00041618478
55	0x3cb02585	0.021502266
56	0xbc9300c9	-0.01794471
57	0xbc548443	-0.012970987
58	0xbc1bd7bd	-0.009511885
59	0xbc850417	-0.016237302
60	0x3d3c9aca	0.046046056
61	0xbce01127	-0.027351929
62	0xbbf72c5e	-0.007543131
63	0xbce79300	-0.028268337
64	0x3b39d4b0	0.0028355531
65	0x3c469439	0.0121203
66	0xbd3acc16	-0.045604788
67	0xbcda1576	-0.026621561
68	0xbb34aec0	-0.002756998
69	0xbc8b0d29	-0.016974049
70	0x3c0ce470	0.008599386
71	0x3cbf4465	0.023348043
72	0x3ce85885	0.028362522
73	0x3c77d8cc	0.015127372
74	0xbba2259d	-0.0049483315
75	0xbb1d7360	-0.0024025068
76	0xbc8d52d1	-0.017251404
77	0x3d1ebcb7	0.03875419
78	0x3cd98a74	0.026555277
79	0xbc2270bd	-0.009914574
80	0xbd01ded8	-0.03170666
81	0xbcce9f0e	-0.025222328
82	0x3b496e00	0.003073573
83	0x3d3b81bb	0.045778017
84	0x3c721743	0.014776054
85	0xbca260cf	-0.019821553
86	0x3c552268	0.013008691
87	0xbcd26a4e	-0.025685456
88	0xbc075ad7	-0.008261404
89	0xbd01be08	-0.03167537
90	0xbd08b16a	-0.03337232
91	0x3ad2f8aa	0.0016095836
92	0xbb70af6f	-0.003672566
93	0x3d0d1458	0.03444323
94	0x3c9f22e3	0.019425815
95	0x3badad5f	0.0053002085
96	0xbcca8b8d	-0.024724746
97	0x3c3eddf0	0.011649594
98	0xbc771066	-0.015079593
99	0xbcabbeb5	-0.02096496
100	0x3d021520	0.031758428
101	0x3ca33de0	0.019926965
102	0xbbb12273	-0.005405718
103	0x3d2d128b	0.042254012
104	0x3ba00569	0.0048834574
105	0xbcff08d0	-0.031132132
106	0x3c8cfd49	0.01721062
107	0xbc1d964b	-0.009618352
108	0xbd660364	-0.056155577
109	0xbbe6cf1d	-0.007043733
110	0x3d068da2	0.032849915
111	0xbbe26020	-0.0069084316
112	0xbd3ff08a	-0.046860255
113	0xbcc4b638	-0.02401267
114	0xbcb71a10	-0.022351295
115	0xbcd38897	-0.025821967
116	0x3d556c96	0.05210551
117	0x3c008b07	0.007845647
118	0xbbe91dc6	-0.007114145
119	0x3b9c5e20	0.0047719628
120	0xbb853224	-0.004064815
121	0x3b4466ca	0.0029968494
122	0x3cdd501a	0.027015734
123	0x3caaa775	0.020831803
124	0x3ca8d01e	0.02060705
125	0xbc66544f	-0.014058187
126	0xbc0d7534	-0.0086339
127	0x3c3b4f19	0.011432433

dense.2.weight f4 [64, 128]
0	0xbbe933cf	-0.007116772
1	0x3d96341f	0.0733416
2	0x3d00b7dc	0.031425342
3	0x3d226b3d	0.03965305
4	0xbd54559b	-0.051839452
5	0xbcaa0aec	-0.020757161
6	0x3c1f5636	0.009725144
7	0x3da139ab	0.078723274
8	0x3d021f69	0.031768236
9	0xbd4a7ccb	-0.049435418
10	0xbba0d715	-0.0049084523
11	0xbda31f6c	-0.079649776
12	0xbda125fc	-0.07868573
13	0x3da4f393	0.080542706
14	0x3d59f4be	0.05321192
15	0xbd0bba72	-0.034113355
16	0xbd9531d6	-0.07284896
17	0x3d1e4cdc	0.038647518
18	0x3bf8db40	0.007594496
19	0x3d92044d	0.071297266
20	0x3d6e48d4	0.058174923
21	0xbd0e263c	-0.034704432
22	0xbd977bce	-0.07396661
23	0x3c770691	0.015077249
24	0xbd1ee2f5	-0.03879066
25	0xbd5f22d3	-0.05447657
26	0x3c926ee4	0.017875142
27	0x3ce56783	0.02800346
28	0xbd96d4ee	-0.07364832
29	0x3da60385	0.0810614
30	0xbd1ed83d	-0.03878044
31	0xbd897e89	-0.06713588
32	0xbddd4254	-0.10803667
33	0x3d4d90d6	0.050186954
34	0x3db1125d	0.08646081
35	0xbd2a1cfe	-0.041531555
36	0x3d691d2f	0.056912597
37	0x3d71ac26	0.059002064
38	0x3cd9ed17	0.026602311
39	0x3dd60374	0.104498774
40	0xbdfa8e32	-0.12234153
41	0x3cce871c	0.02521091
42	0xbcfaa167	-0.03059454
43	0x3c7f5db6	0.015586307
44	0x3c543065	0.012950991
45	0xbd18f90a	-0.037346877
46	0x3c814062	0.01577777
47	0x3d00d6ef	0.031454977
48	0xbd2fb41a	-0.042896368
49	0xbd1ab4be	-0.037770025
50	0xbd03979b	-0.032127004
51	0x3d8f21e3	0.06988885
52	0xbd8e3c07	-0.06945043
53	0xbcf6ec24	-0.030141897
54	0xbd36ff26	-0.044676922
55	0x3d8e8bc8	0.06960255
56	0x3c6869f0	0.014185414
57	0x3b9ee850	0.004849471
58	0xbd1b5abb	-0.037928324
59	0xbc2bb028	-0.010479011
60	0xbd7f1364	-0.06227435
61	0x3d9e4b7b	0.077292405
62	0x3d22313e	0.039597742
63	0xbd2ca4c2	-0.042149313
64	0xbd4dc10f	-0.050232943
65	0x3d850626	0.06495313
66	0x3d46dcd7	0.048550453
67	0x3d2bf97f	0.041985985
68	0x3c22f2e0	0.009945601
69	0x3d08b3fc	0.03337477
70	0x390630e6	0.00012797452
71	0xbc750e3e	-0.014957009
72	0x3dee52f7	0.11636918
73	0x3d4db35a	0.05021987
74	0xbd14fa5b	-0.03637157
75	0x3d581be2	0.052760966
76	0x3d3ef137	0.04661676
77	0xbd9cfaa0	-0.076649904
78	0xbc590168	-0.013244964
79	0x3d608306	0.054812454
80	0xbd3f2145	-0.046662588
81	0xbd6ca68b	-0.057776015
82	0x3da99f61	0.08282352
83	0x3d09e5f8	0.03366658
84	0x3d8e8adc	0.06960079
85	0x3d92a6ac	0.071606964
86	0x3c0f28a0	0.008737713
87	0x3d28793e	0.04113125
88	0xbd5ed719	-0.05440435
89	0xbd4be43d	-0.04977821
90	0xbd98546b	-0.074379764
91	0x3dd2a2ec	0.10284981
92	0x3d86e965	0.06587485
93	0x3dc392bb	0.09549471
94	0xbc6c7210	-0.0144314915
95	0xbda5f766	-0.08103828
96	0x3d2bb4a1	0.041920308
97	0xbd3f62ee	-0.046725206
98	0x3dc882e1	0.09790588
99	0x3d40490d	0.046944667
100	0x3d84fe4d	0.064938165
101	0x3c2f2ba8	0.010691561
102	0xbd9cb824	-0.076523095
103	0xbd436ebb	-0.047713023
104	0xbca80a4c	-0.020512722
105	0x3beecee0	0.007287845
106	0xbd3f3b91	-0.046687666
107	0x3d087746	0.033316873
108	0x3de14ec7	0.11001354
109	0xbd1be318	-0.03805837
110	0x3da2a123	0.07940891
111	0x3d21d930	0.039513767
112	0x3de44fe8	0.111480534
113	0x3c4108b7	0.011781863
114	0xbdaba841	-0.08381701
115	0xbd0709b9	-0.032968257
116	0x3c477e5a	0.012176121
117	0xbcb4e59e	-0.022082146
118	0x3d8f140b	0.06986245
119	0xbd04437a	-0.032290913
120	0xbc8ea28c	-0.017411493
121	0x3da57c1b	0.08080312
122	0x3d80bb14	0.06285682
123	0x3d7a5162	0.06111277
124	0x3db9f777	0.09080403
125	0xbd7ab00b	-0.061203044
126	0xbd1dfbec	-0.03857033
127	0x3dc35839	0.095383115
128	0xbd2a5096	-0.04158076
129	0x3b33ce80	0.0027436316
130	0xbd91613a	-0.070986226
131	0xbcc1dea3	-0.023665732
132	0x3cab8b70	0.020940512
133	0x3c13a010	0.00901033
134	0x3cf5495c	0.029942207
135	0xbb2b1060	-0.002610229
136	0x3c908dc1	0.017645719
137	0x3d1e52ca	0.038653173
138	0xbd085971	-0.033288423
139	0x3d294a5a	0.041330673
140	0xbc2cc790	-0.010545626
141	0x3c65c50f	0.014024033
142	0xbd9ea4bd	-0.07746265
143	0x399166ee	0.00027733244
144	0xbba34090	-0.0049820617
145	0xbc75f5be	-0.015012203
146	0x3d57c256	0.052675568
147	0x3dacd851	0.084396966
148	0xbd8aa133	-0.067690276
149	0x3d47e12e	0.048798732
150	0xbdad2d76	-0.084559366
151	0x3c347280	0.011013627
152	0xbbcc0070	-0.006225638
153	0xbcad8acc	-0.021184348
154	0x3d12fca4	0.035885468
155	0xbc42d568	-0.0118917
156	0x3d612742	0.05496908
157	0xba0f7180	-0.000547193
158	0xbd3b0472	-0.045658536
159	0xbd50b472	-0.050953336
160	0xbb807d90	-0.003921218
161	0xbd825267	-0.06363373
162	0x3d903d09	0.070428915
163	0x3d64720a	0.05577282
164	0x3da5f087	0.081025176
165	0xbcb1a854	-0.02168671
166	0x3cf02a24	0.02931697
167	0xbdd01852	-0.10160889
168	0xbc840c72	-0.016119216
169	0x3d9ac2f9	0.07556719
170	0xbc39a8a6	-0.011331713
171	0xbdda5763	-0.10661199
172	0xbdab9609	-0.08378226
173	0x3d119c86	0.035549663
174	0xbd4de885	-0.050270576
175	0x3cc63820	0.024196684
176	0x3b91780b	0.004439359
177	0x3d85ff85	0.06542877
178	0x3d06538a	0.032794513
179	0x3d6bc3b6	0.05755969
180	0xbd9e1ecf	-0.0772072
181	0x3cdc0a27	0.02686031
182	0xbda90d01	-0.082544334
183	0x3d0fd91f	0.035119172
184	0x3c3bb3e0	0.01145646
185	0x3d2b7876	0.041862927
186	0xbd59a77c	-0.05313824
187	0x3cfad1c4	0.030617602
188	0xbcb10bc3	-0.021612054
189	0xbd44bd4e	-0.048032098
190	0x3d59e061	0.0531925
191	0x3d0f24f6	0.034947358
192	0x3d9e27a1	0.07722402
193	0xbdab0cd1	-0.08352054
194	0x3ba9a0b0	0.005176626
195	0xbdb06bfd	-0.08614347
196	0x3c622d58	0.013804756
197	0x3d426d1a	0.04746733
198	0xbb2f22ec	-0.0026723696
199	0x3c8409c4	0.016117938
200	0x3ca2addf	0.019858299
201	0xbb62a9c0	-0.0034586042
202	0x3d55fe02	0.052244194
203	0x3d0842f8	0.03326699
204	0x3d0b54a8	0.03401628
205	0xbda7f431	-0.08200873
206	0xbd081b1b	-0.033228975
207	0x3d75a568	0.059972197
208	0x3da73b49	0.081656046
209	0xbda51e95	-0.08062474
210	0xbcb44184	-0.022003897
211	0xb8fed10e	-0.00012150603
212	0xbd9a6387	-0.075385146
213	0x3d694ee7	0.056960013
214	0x3c332bb8	0.010935716
215	0xbd583a02	-0.052789696
216	0xbdb29429	-0.087196656
217	0x3d0d3a7d	0.034479607
218	0xbdb432bd	-0.0879874
219	0xbd8a3a75	-0.06749431
220	0xba4789b2	-0.0007611766
221	0x3d895975	0.06706516
222	0x3db49fc9	0.08819539
223	0x3d94efc9	0.07272298
224	0x3cb6e3a8	0.022325352
225	0x3d8ab279	0.06772322
226	0x3d80ec18	0.06295031
227	0xbd41fca9	-0.047360096
228	0xbcce0a79	-0.025151478
229	0xbd9a547e	-0.07535647
230	0xbc96ddd8	-0.01841633
231	0x3bb11b41	0.0054048602
232	0x3dae8aa9	0.08522541
233	0x3a0d4000	0.000538826
234	0x3d15a659	0.036535595
235	0xbd74a245	-0.059725065
236	0x3d94e60d	0.07270441
237	0xbc7fb4db	-0.015607084
238	0x3d1b36e0	0.03789413
239	0xbce61217	-0.028084798
240	0x3d22cd48	0.039746553
241	0xbc860e70	-0.016364306
242	0xbd658a43	-0.05604006
243	0xbda1daec	-0.07903084
244	0xbd772186	-0.060334705
245	0xbd765cff	-0.06014728
246	0x3d943d79	0.072382875
247	0xbd632cef	-0.055462774
248	0x3ccb0590	0.024782926
249	0x3d913405	0.0709
250	0xbd6668a3	-0.056252133
251	0xbd32cba1	-0.043651227
252	0xbc365aad	-0.011130017
253	0x3d3b1b20	0.045680165
254	0xbca4c318	-0.02011256
255	0xbd9b74a5	-0.075906076

dense.2.bias f4 [64]
0	0xbd937a12	-0.072010174
1	0xbdaba91f	-0.08381867
2	0xbda83663	-0.082134984
3	0x3d927726	0.07151632
4	0x3dd1abb4	0.10237828
5	0x3dd67a45	0.1047254
6	0xbcc35931	-0.02384624
7	0x3d9864f6	0.07441132
8	0x3dea6593	0.11445155
9	0xbd61a642	-0.055090196
10	0x3ce2d574	0.027689673
11	0xbb87d030	-0.004144691
12	0x3c9f498f	0.019444255
13	0x3d11060f	0.03540617
14	0x3d448011	0.047973696
15	0x3dfa33e7	0.12216931
16	0x3d5c4db8	0.053785056
17	0xbc1c4c75	-0.009539713
18	0xbd053c76	-0.032528363
19	0xbc931610	-0.017954856
20	0xbd719f1f	-0.05898964
21	0x3db44b18	0.088033855
22	0x3c252908	0.010080583
23	0x3d9f5d51	0.077814706
24	0xbd102cfb	-0.035199147
25	0x3d2180e6	0.039429568
26	0xbda53f2a	-0.08068688
27	0x3d969de6	0.073543355
28	0xbda9df66	-0.08294563
29	0xbd1f44be	-0.038883917
30	0xbd857abf	-0.065175526
31	0xbc00fc3a	-0.0078726355
32	0x3d7c545b	0.061603885
33	0x3d497566	0.049184225
34	0xbd3bdf53	-0.045867275
35	0x3d5d0ed9	0.053969238
36	0x3b5adf8c	0.0033397404
37	0xbdabe285	-0.083928145
38	0x3cddd05c	0.027076893
39	0x3d9876f8	0.074445665
40	0xbda54287	-0.0806933
41	0xbb628b8d	-0.0034568042
42	0x3d567521	0.052357797
43	0x3e0909ba	0.13382617
44	0x3d55bcfd	0.052182186
45	0x3d3017f8	0.04299161
46	0x3d8cc848	0.06874138
47	0x3dae4073	0.085083865
48	0xbd5a1402	-0.053241737
49	0xbd95e93f	-0.07319879
50	0x3d70204a	0.058624543
51	0xbc278a6a	-0.010225872
52	0xbd856337	-0.06513064
53	0xbdbf57ba	-0.093429044
54	0xbd006896	-0.03134974
55	0xbd628371	-0.055301134
56	0xbd9dc771	-0.07704056
57	0x3dcf375d	0.101179816
58	0x3ce5a84c	0.028034352
59	0xbd74ef73	-0.05979867
60	0x3dd3d667	0.103436284
61	0x3c30ac27	0.010783232
62	0xbd464d1d	-0.048413385
63	0xbd569be8	-0.052394778

dense.4.weight f4 [32, 64]
0	0x3de9ddd4	0.114192635
1	0xbdff0608	-0.12452322
2	0xbdf24a7e	-0.118306145
3	0xbd50e500	-0.05099964
4	0x3d7a4048	0.06109646
5	0x3ca020e0	0.019546926
6	0x3d991ec4	0.07476571
7	0xbd44acd0	-0.04801637
8	0xbdd84fb6	-0.10562079
9	0xbd97ab66	-0.074057385
10	0xbd3d36c0	-0.04619479
11	0x3d8032e8	0.062597096
12	0xbdc0b362	-0.094092146
13	0x3dd70d48	0.1050058
14	0xbddbfbba	-0.107413724
15	0xbd01fdb4	-0.03173609
16	0xbdd17a72	-0.10228433
17	0x3d96704a	0.07345636
18	0x3d1a9a40	0.03774476
19	0x3d8b7d1a	0.068109706
20	0xbdf5d6d6	-0.12003867
21	0x3d5d185c	0.05397831
22	0x3cac6c70	0.0210478
23	0x3d95d582	0.07316114
24	0x3df5cff0	0.120025516
25	0xbd519fa0	-0.05117762
26	0x3ddfc818	0.10926837
27	0xbd595074	-0.05305524
28	0xbdd462aa	-0.10370381
29	0x3de8aca4	0.113610536
30	0xbdd85738	-0.10563511
31	0xbd124ee0	-0.035719752
32	0xbc967420	-0.01836592
33	0xbcb78888	-0.02240397
34	0x3c21a110	0.00986506
35	0x3bc68660	0.006058499
36	0xbcbee348	-0.023301736
37	0x3bb9b060	0.0056667775
38	0xbdbea72a	-0.09309228
39	0xbdc332e6	-0.095311925
40	0x3dc9fdcc	0.09862861
41	0xbabb0280	-0.0014267713
42	0xbdb580fe	-0.08862494
43	0xbdee0c02	-0.11623384
44	0xbd255104	-0.040360466
45	0x3d590af0	0.052988946
46	0xbd6c46d0	-0.05768472
47	0x3dbfb868	0.093613446
48	0xbc327530	-0.0108921975
49	0xbc848a78	-0.016179308
50	0xbdcf5fc0	-0.10125685
51	0x3d380d54	0.044934586
52	0x3d4d2628	0.050085217
53	0xbc34a980	-0.01102674
54	0xbd4c9160	-0.049943328
55	0x3d388d14	0.045056418
56	0x3da6c12a	0.08142312
57	0x3de04a1a	0.10951634
58	0xbcbf4888	-0.023350015
59	0xbd8f11b0	-0.069857955
60	0xbd98fb02	-0.07469751
61	0xbd917700	-0.071027756
62	0xbdaf46a2	-0.08558394
63	0x3dc2fd2a	0.095209435
64	0xbc8484d5	-0.01617662
65	0xbd82adc5	-0.063808
66	0x3dcc44d9	0.09974069
67	0x3d92ca0c	0.07167444
68	0xbc0e50bb	-0.00868624
69	0x3e2f39ac	0.17111844
70	0x3e104006	0.14086923
71	0xbd2fefda	-0.04295335
72	0x3d8523b3	0.0650095
73	0x3cfebef8	0.03109692
74	0xbd52531d	-0.051348794
75	0xbcec4fe8	-0.028846696
76	0x3d6ca33e	0.057772867
77	0x3daa623a	0.083195165
78	0x3d57bd97	0.05267104
79	0x3db5a6bd	0.088696934
80	0xbe05db7a	-0.13072005
81	0x3d5b7c10	0.053585112
82	0x3c246d14	0.010035772
83	0x3d396208	0.045259506
84	0x3acfe1b9	0.0015860117
85	0x3d97ca6d	0.074116565
86	0xbccab7cd	-0.024745846
87	0x3dfb625a	0.122746184
88	0xbdcae388	-0.099066794
89	0x3d44b904	0.048028007
90	0xbdf42033	-0.11920204
91	0x3da68d2b	0.081323944
92	0xbd9680ab	-0.0734876
93	0xbdcc2c76	-0.09969418
94	0xbc4e9f9c	-0.012611296
95	0x3d3fcfd4	0.04682906
96	0xbcfad5bc	-0.030619495
97	0xbb9239a0	-0.004462436
98	0xbc93ff07	-0.018065942
99	0x3debaf31	0.115080245
100	0x3df9c654	0.12196031
101	0xbd067a66	-0.032831572
102	0x3e119a68	0.14219058
103	0x3ddd9663	0.108196996
104	0xbdcceaba	-0.10005708
105	0x3cec8b84	0.02887512
106	0xbd79dd04	-0.061001793
107	0x3cb60c6b	0.022222718
108	0x3d8b2457	0.06794041
109	0x3d2eaa4a	0.04264287
110	0xbe061baf	-0.13096498
111	0xbbaa98ee	-0.005206219
112	0x3da2496c	0.0792416
113	0x3d7f618c	0.062348887
114	0xbdb60e2e	-0.08889423
115	0xbd9fd1d1	-0.07803691
116	0xbdcae7a9	-0.09907467
117	0x3e10985d	0.14120622
118	0xbb7fa8c4	-0.0039010504
119	0xbdee3f27	-0.11633139
120	0xbd89139d	-0.06693194
121	0x3cfc2a62	0.030781928
122	0x3d5c47fe	0.053779595
123	0x3e2963de	0.16542003
124	0xbd8a0d33	-0.06740799
125	0x3e1c5e6b	0.15270393
126	0xbb9d0cba	-0.004792777
127	0xbdecf515	-0.11570183
128	0x3d4c4047	0.049865987
129	0xbdd57430	-0.10422552
130	0x3ddfca5e	0.1092727
131	0xba9f8a39	-0.0012171931
132	0xbe08b53b	-0.13350384
133	0x3d2bb06c	0.041916296
134	0x3d60ba24	0.054865018
135	0xbd403ba8	-0.046931893
136	0xbd5e740c	-0.05430989
137	0x3c0cded0	0.0085980445
138	0xbd812bdb	-0.06307193
139	0xbd9d4888	-0.0767985
140	0x3c976ad8	0.018483564
141	0xbdcb867e	-0.09937762
142	0xbd278c00	-0.040905
143	0xbcfa3e71	-0.030547353
144	0xbaa13bd3	-0.0012301154
145	0x3de7c4f8	0.11316866
146	0xbda7f2dc	-0.082006186
147	0xbdf1baa0	-0.11803174
148	0xbd661db8	-0.056180686
149	0x3dc5c050	0.09655821
150	0x3cdad848	0.026714459
151	0xbca2b62a	-0.019862253
152	0xbdd5c8d0	-0.104386926
153	0xbdec14d6	-0.11527412
154	0xbdac39fc	-0.08409497
155	0xbd2faa47	-0.042887
156	0xbdac44d9	-0.08411569
157	0xbd8f5dce	-0.07000314
158	0xbdc98264	-0.09839323
159	0xbdf9a39a	-0.12189408
160	0x3c23d150	0.009998634
161	0xbb872be0	-0.0041251034
162	0x3d8ebc6b	0.069695316
163	0x3ded1b9e	0.11577533
164	0x3dca4c56	0.09877841
165	0xbbca7640	-0.0061786473
166	0x3db59ed6	0.08868186
167	0xbdf6b5ab	-0.12046369
168	0xbd9a0d24	-0.075220376
169	0x3dcf7442	0.10129596
170	0x3df7dc92	0.12102617
171	0xbdf35241	-0.11880923
172	0xbd607d40	-0.054806948
173	0xbdc0813c	-0.093996495
174	0x3ccef377	0.025262577
175	0x3cd5b945	0.02608932
176	0xbddc4eb0	-0.10757196
177	0x3d71f20c	0.059068725
178	0xbdee3f0a	-0.116331175
179	0x3daa3821	0.08311487
180	0x3df40334	0.119146734
181	0xbd412fee	-0.04716485
182	0x3d263138	0.040574282
183	0x3dfb06d2	0.1225716
184	0xbdcc9672	-0.09989633
185	0xbcad5769	-0.021159844
186	0x3d662538	0.05618784
187	0xbdc46f98	-0.09591597
188	0x3d23a5fe	0.039953224
189	0xbd772475	-0.060337503
190	0x3bd94a60	0.0066311806
191	0x3c27f6d0	0.010251716
192	0xbe0e29eb	-0.13883178
193	0xbc101a45	-0.008795326
194	0xbd631628	-0.05544105
195	0xbd8562b0	-0.06512964
196	0x3da44c3d	0.08022354
197	0x3cc3d477	0.023905022
198	0xbc94346c	-0.018091403
199	0xbdd32907	-0.1031056
200	0xbbd86c2e	-0.006604693
201	0x3c73ee60	0.014888376
202	0x3c78b8ad	0.015180749
203	0xbcc3d1a8	-0.023903683
204	0x3da03b77	0.07823842
205	0x3d8408ba	0.06446977
206	0xbd9d9cbc	-0.0769591
207	0xbcdd9718	-0.027049586
208	0x3dd17ceb	0.10228904
209	0xbdfd2892	-0.12361254
210	0xbe1d9b96	-0.15391383
211	0x3c513320	0.012768537
212	0x3d597504	0.05309011
213	0xbe0ffe9a	-0.14061967
214	0xbdef2dab	-0.11678632
215	0xbcd4253e	-0.025896665
216	0x3cfb9f80	0.030715704
217	0x3c788a89	0.015169748
218	0x3dd1e59f	0.10248875
219	0xbd81f99a	-0.06346436
220	0x3d174573	0.036931466
221	0x3c97493a	0.018467534
222	0x3d0a7400	0.033802032
223	0xbc301340	-0.010746777
224	0x3bda0b80	0.006654203
225	0xbd18e19c	-0.037324533
226	0xbdd79386	-0.10526185
227	0xbe0577f4	-0.1303404
228	0xbb73d6e9	-0.0037206954
229	0x3deffe7a	0.117184594
230	0x3d139d96	0.036038958
231	0x3d29d380	0.041461468
232	0x3ba157e0	0.0049238056
233	0x3c8a02c9	0.016847031
234	0x3d35d482	0.044392116
235	0xbd90c895	-0.07069508
236	0x3bebe5b4	0.0071990136
237	0xbd0a13ea	-0.033710398
238	0x3d0aabc0	0.0338552
239	0x3c353b8b	0.011061559
240	0xbd8838dc	-0.0665147
241	0x3d0f8368	0.03503743
242	0xbe1912f7	-0.14948641
243	0xbde4b481	-0.11167241
244	0x3c9f5040	0.019447446
245	0x3d263946	0.040581964
246	0xbdff814e	-0.12475835
247	0x3b1d3d00	0.0023992658
248	0xbddee4d4	-0.10883489
249	0x3bfb9fad	0.007678947
250	0xbc21a8a2	-0.009866865
251	0xbd9f5814	-0.077804714
252	0xbb902016	-0.004398356
253	0x3d9bdad1	0.07610095
254	0x3ccd1650	0.025035053
255	0xbda7882c	-0.081802696

dense.4.bias f4 [32]
0	0xbdc770f0	-0.09738338
1	0x3e0d843b	0.13819973
2	0xbd3b1ff0	-0.045684755
3	0x3d9c1392	0.0762092
4	0xbd4d7be3	-0.050166976
5	0x3d6e2012	0.058136053
6	0x3da74936	0.08168261
7	0x3e1b0d59	0.1514181
8	0x3e1b549d	0.15168996
9	0xbdf359ae	-0.118823394
10	0xbbdfde00	-0.0068318844
11	0xbd371735	-0.044699866
12	0xbd348bec	-0.044078752
13	0x3da621a7	0.081118874
14	0xbbdf6e4c	-0.0068185683
15	0x3d4c779a	0.04991875
16	0x3d86bb4a	0.06578691
17	0xbe0cebec	-0.13761872
18	0x3e54ee6d	0.20794077
19	0xbd1ddff5	-0.03854366
20	0x3e20fcfb	0.15721504
21	0xbde55504	-0.11197856
22	0xbdddc930	-0.10829389
23	0x3e0ced7b	0.13762467
24	0x3db38df3	0.08767309
25	0x3dfdace0	0.12386489
26	0xbd2bb2c2	-0.041918524
27	0x3d707663	0.058706652
28	0x3da7ecfc	0.08199498
29	0xbd842023	-0.06451442
30	0x3e569245	0.20954235
31	0xbcd73e68	-0.026274875

dense.6.weight f4 [5, 32]
0	0x3d487ff4	0.04895015
1	0xbe0cab30	-0.13737178
2	0xbd6fae0a	-0.058515586
3	0xbe18afbb	-0.14910786
4	0x3e17ba28	0.14817107
5	0xbd6061f3	-0.05478091
6	0xbe149874	-0.14511281
7	0x3e3b2364	0.18275219
8	0x3d9e0336	0.07715456
9	0x3c7f5ef0	0.0155866
10	0x3d346a60	0.04404676
11	0x3e3ba5b8	0.18324935
12	0xbd7e0360	-0.062014937
13	0x3dbea4bc	0.09308764
14	0xbe6bd715	-0.23031266
15	0x3e527f69	0.20556416
16	0xbdaf0fa8	-0.08547908
17	0x3e44a71e	0.19204375
18	0x3dca3761	0.09873844
19	0xbe07b58e	-0.13252851
20	0xbd2cabfe	-0.042156212
21	0xbde049e3	-0.10951593
22	0xbdea3a6c	-0.11436924
23	0x3e619b91	0.22032
24	0xbb984875	-0.0046473094
25	0x3e5b3ff8	0.21411121
26	0x3d9b6704	0.07588008
27	0xbd55a2b0	-0.052157104
28	0x3e210fcd	0.15728684
29	0xbd7ce377	-0.061740365
30	0x3e3e91f7	0.18610369
31	0xbbc9a353	-0.006153503
32	0x3e2539e7	0.16135369
33	0x3e391eda	0.18078175
34	0x3da12aba	0.078694776
35	0x3d610fed	0.05494683
36	0x3dffa107	0.124818854
37	0x3e486d67	0.19572984
38	0xbdb34979	-0.08754248
39	0x3dcbeea8	0.099576294
40	0xbdb3e49f	-0.087838404
41	0x3dfeaafa	0.12434955
42	0x3e24ace7	0.16081582
43	0xbcb6d4be	-0.02231824
44	0x3e9d203a	0.3068865
45	0xbda7c087	-0.081910186
46	0xbd90b552	-0.07065834
47	0x3e0bcd78	0.13652599
48	0xbe21ab96	-0.15788111
49	0xbd214b16	-0.03937825
50	0xbe16df30	-0.14733577
51	0x3d4451d4	0.0479296
52	0xbd96ad4c	-0.073572725
53	0x3e3e40ff	0.18579482
54	0x3e029f89	0.1275617
55	0x3d3fc366	0.046817206
56	0xbe079937	-0.1324204
57	0x3d1b2cd5	0.037884552
58	0x3d1b0fe6	0.03785696
59	0x3de91812	0.11381544
60	0x3e07427c	0.13208956
61	0x3e24d980	0.16098595
62	0x3e64eda7	0.22356282
63	0xbda6027b	-0.08105942
64	0x3ddd5f22	0.10809161
65	0x3e0adeae	0.13561508
66	0x3d54e9f2	0.05198092
67	0x3e0d1141	0.13776113
68	0xbda5bb70	-0.080923915
69	0x3dbc38a7	0.09190493
70	0xbd16461c	-0.036687955
71	0x3d29616d	0.041352678
72	0x3c788c65	0.015170191
73	0x3e297025	0.16546686
74	0xbd632f56	-0.055465065
75	0xbd9d307b	-0.076752625
76	0xbe006834	-0.1253975
77	0xbdfb7af1	-0.122793086
78	0x3cd41de4	0.02589316
79	0x3d91076f	0.07081496
80	0xbe1df8b5	-0.15426905
81	0xbd810f0e	-0.063016996
82	0x3db5420a	0.088504866
83	0x3c99f7f3	0.01879499
84	0x3cf47f73	0.029845929
85	0x3d5d23c3	0.053989183
86	0xbd6ed528	-0.05830875
87	0x3d2b4da5	0.041822094
88	0xbe2430dd	-0.16034265
89	0x3dbebe7a	0.09313674
90	0x3d81ba48	0.063343585
91	0x3d43c8fa	0.047799088
92	0x3d595982	0.053063877
93	0x3cae733c	0.021295182
94	0x3d1b6b4a	0.037944116
95	0x3d9ce49b	0.076607905
96	0xbd5cd496	-0.053913675
97	0xbd052f9f	-0.03251612
98	0x3cc885ff	0.024477957
99	0xbd14b0ba	-0.036301352
100	0xbd52fb21	-0.051509026
101	0x3dfea671	0.1243409
102	0x3dfa4334	0.12219849
103	0x3dab5ffd	0.08367918
104	0x3e0dc978	0.13846385
105	0x3d4e90ac	0.05043094
106	0x3ccfef30	0.025382608
107	0xbcd31f18	-0.025771663
108	0xbd6cd69b	-0.05782185
109	0xbcbba326	-0.022904944
110	0x3d827921	0.0637076
111	0xbd1235c2	-0.0356958
112	0xbda57fc1	-0.08081008
113	0xbc4e3803	-0.012586596
114	0x3e06bde9	0.13158382
115	0xbe06e162	-0.13171914
116	0x3da69598	0.081340015
117	0xbe081156	-0.13287863
118	0x3e00efdf	0.12591504
119	0x3da5f613	0.081035756
120	0x3d8aa597	0.06769865
121	0xbd31eb36	-0.043437205
122	0x3d02d47f	0.031940933
123	0x3dbb86ae	0.091565475
124	0xbd8c4ddf	-0.0685079
125	0xbe19e22e	-0.15027687
126	0x3e2bf4ff	0.16792677
127	0x3d0511ff	0.032487866
128	0x3cf03478	0.029321894
129	0x3e839b12	0.25704247
130	0x3de686e9	0.11256201
131	0xbdfa9750	-0.12235892
132	0xbde5e344	-0.11224988
133	0xbe142d68	-0.14470446
134	0x3e402428	0.18763793
135	0x3e4429a6	0.19156513
136	0x3d82c291	0.06384767
137	0x3dfe22f6	0.12409012
138	0xbe2a5719	-0.16634788
139	0xbe12727d	-0.14301486
140	0x3b96e7c5	0.004605266
141	0xbba4f70d	-0.0050343336
142	0xbe795107	-0.24347316
143	0xbd402838	-0.046913356
144	0x3e119ef5	0.14220794
145	0x3e26b4a1	0.16279842
146	0x3dc9810d	0.098390676
147	0x3dc9369e	0.098248705
148	0x3e5e171a	0.216885
149	0x3d56e95e	0.05246865
150	0xbe304f51	-0.17217757
151	0xbe2cfa55	-0.16892369
152	0xbdff40b9	-0.12463517
153	0xbd834a9f	-0.06410717
154	0x3e00658e	0.1253874
155	0x3cf70492	0.030153546
156	0x3e512d74	0.20427495
157	0xbd96d8a4	-0.0736554
158	0x3d996604	0.07490161
159	0xbec2d44f	-0.38052604

dense.6.bias f4 [5]
0	0xbd962775	-0.073317446
1	0x3cb4b385	0.022058258
2	0x3e3fce6f	0.18731092
3	0x3e01a031	0.12658764
4	0x3d0a1c41	0.03371835
