saved_weights/surrogate.pt (torch, 138597 bytes, 9 tensors)

net.0.weight f4 [64, 6]
0	0x3eecb5b4	0.46232378
1	0xbf190751	-0.5977679
2	0x3b2682d4	0.002540757
3	0x3b81d4d7	0.00396214
4	0xbe9cca08	-0.30622888
5	0xbf02eb51	-0.51140314
6	0xbe071e1c	-0.1319508
7	0x3d6fbdf3	0.05853076
8	0xbc6ca937	-0.014444641
9	0xbd59a71e	-0.05313789
10	0xbda84b52	-0.08217491
11	0xbee63315	-0.44960847
12	0x3e0516fa	0.12997046
13	0x3ddd8180	0.10815716
14	0xb9bc06ac	-0.00035863125
15	0x3ae41b7e	0.0017403213
16	0xbde14ea0	-0.11001325
17	0xc0050654	-2.0785112
18	0xbf92885e	-1.1447866
19	0xbe2cdad3	-0.1688035
20	0x399b6aec	0.00029643567
21	0x3b0e4ebd	0.0021714412
22	0x3eacb861	0.3373442
23	0x3f0d695f	0.5523891
24	0x3f243559	0.641439
25	0xbd7a2d2a	-0.061078228
26	0x3bd2b05d	0.0064297155
27	0xbc1e0386	-0.009644395
28	0xbd3d9162	-0.046281226
29	0xbd671f25	-0.056426186
30	0x3e040d7a	0.12895766
31	0x3dcd0007	0.10009771
32	0x39cf716a	0.00039566617
33	0x390da3c6	0.00013507818
34	0xbf41e964	-0.7574675
35	0xbe191b51	-0.14951827
36	0x3e5e7839	0.21725549
37	0x3f42e8f4	0.7613671
38	0xbad928c8	-0.001656794
39	0x3d16580d	0.036705066
40	0xbe089cde	-0.1334109
41	0xbeaca5f5	-0.33720365
42	0xbe7586ef	-0.23977254
43	0x3e51fe00	0.2050705
44	0x3a0afce3	0.0005301965
45	0xba52cfd3	-0.00080418325
46	0x3e456f8d	0.19280834
47	0x3f968ee4	1.1762357
48	0x3e4dc3bb	0.20094196
49	0x3cc9e5e4	0.024645753
50	0xb7c41328	-2.3373941e-05
51	0xbb013b0a	-0.0019719028
52	0x3ee0c4b1	0.43900064
53	0x3f307388	0.68926287
54	0xbc0aa0a0	-0.008461148
55	0xbe418684	-0.1889897
56	0xbec41274	-0.3829533
57	0xbd4c8340	-0.049929857
58	0xbec1cbf3	-0.37850913
59	0xbd82f6e0	-0.06394744
60	0xbebd12e9	-0.3692849
61	0xbf05fa9e	-0.52335536
62	0xbca57ee1	-0.020202102
63	0x3bd0eccf	0.006375886
64	0xbe9da773	-0.30791816
65	0x3ee7aa99	0.45247343
66	0xbe76d02b	-0.24102847
67	0xbe046860	-0.12930441
68	0xbe14d698	-0.14534986
69	0xbe697763	-0.22799449
70	0x3ec93bb4	0.39303362
71	0xbea74468	-0.32669377
72	0x3e0c1926	0.13681468
73	0x3e028333	0.12745361
74	0xba8d88bb	-0.0010798195
75	0x3acb4edd	0.0015511174
76	0xbf80f728	-1.0075426
77	0xbe351571	-0.1768396
78	0x3debd169	0.11514551
79	0x3daa8dc9	0.083278246
80	0xba8be375	-0.0010672646
81	0xba94b5de	-0.0011345705
82	0xbeda2d1d	-0.42612544
83	0xbfa7fd32	-1.3124144
84	0xbee5a272	-0.44850498
85	0x3f3a2524	0.7271292
86	0x3cd608f3	0.026127314
87	0xbcb7a202	-0.022416119
88	0x3e02777c	0.12740892
89	0xbda02cb1	-0.07821024
90	0xbf21c6b3	-0.63193816
91	0x3f27df7e	0.65575397
92	0xbafd9156	-0.0019345682
93	0xbc0b7b76	-0.008513322
94	0xbe9c6f53	-0.30553684
95	0xbf62e940	-0.8863716
96	0x3e070cf3	0.13188533
97	0x3d523220	0.051317334
98	0xbdc08e0c	-0.09402093
99	0x3e8c9fcf	0.27465674
100	0xbe7495b1	-0.23885228
101	0xbe9a0cc4	-0.30087864
102	0x3d90270f	0.070387
103	0x3e66cfc3	0.22540192
104	0xbc409f77	-0.011756769
105	0x3b92e587	0.004482928
106	0x3e74612f	0.23865198
107	0xbf044ec6	-0.516827
108	0x3ca9ed36	0.020742994
109	0x3e2bfd34	0.16795808
110	0x3a355afb	0.0006918159
111	0x3abbd1cc	0.0014329492
112	0x3d88dc11	0.06682599
113	0xc068604b	-3.6308773
114	0x3f1ce09c	0.61280227
115	0x3ecb0074	0.39648783
116	0xbc4b0d68	-0.012393333
117	0xbd9b17d8	-0.07572907
118	0xbed18333	-0.4092041
119	0xbfae9dc0	-1.3641891
120	0xbfefc8db	-1.8733171
121	0xbe48faa9	-0.1962687
122	0xba2f9024	-0.0006697199
123	0x3967134e	0.00022037068
124	0x3ea06305	0.31325546
125	0x3f1ee015	0.6206067
126	0xbebca951	-0.36847928
127	0x3e8b8c1b	0.2725533
128	0xb69b7f80	-4.634203e-06
129	0xbadff530	-0.0017086621
130	0x3eb967f5	0.36212125
131	0x3f4709aa	0.7774912
132	0x3f5798c4	0.84217477
133	0x3c362c90	0.011119023
134	0x3c68f84c	0.014219355
135	0x3c29c82c	0.010362666
136	0x3d4f5f6d	0.050628114
137	0x3b8010e6	0.0039082645
138	0xbdd85416	-0.10562913
139	0x3e35bf27	0.177487
140	0x3de73907	0.11290174
141	0xbd168878	-0.03675124
142	0xbe9a2193	-0.3010374
143	0xbd80b3e0	-0.062843084
144	0x3e8f6afd	0.28011313
145	0x3e13df45	0.1444064
146	0xbe856d8a	-0.26060134
147	0xbe02dcbc	-0.12779516
148	0xbaabf20f	-0.0013118404
149	0xbe3faddd	-0.18718667
150	0xbf1b4029	-0.60644776
151	0x3d88e29c	0.06683847
152	0x3bc9e14b	0.00616089
153	0x39c7d413	0.00038114245
154	0x3ca3661f	0.019946156
155	0x3ea8eab3	0.3299156
156	0xbe34cb64	-0.17655712
157	0x3e92fd1c	0.28708732
158	0xbb1d0767	-0.002396071
159	0x3b75e3c0	0.0037519783
160	0x3e5951bd	0.21222587
161	0xc0d6eb54	-6.7162266
162	0x3ec2a4d8	0.3801639
163	0x3cc5d83c	0.02415096
164	0x3acab029	0.0015463877
165	0x3b99861f	0.004685178
166	0x3e186da7	0.14885579
167	0x3ee31852	0.44354492
168	0xbed0131b	-0.40639576
169	0x3ebe9ada	0.37227517
170	0x3b7e476b	0.0038799893
171	0x3a8bad11	0.0010656436
172	0x3e9219a3	0.28535184
173	0x3f73bce8	0.95210123
174	0xbf852c19	-1.0404083
175	0xbec81bd9	-0.39083746
176	0xb8829328	-6.226293e-05
177	0x3c3f8b17	0.011690876
178	0xbeb76af4	-0.35823786
179	0x3f18cf40	0.5969124
180	0xbe444577	-0.19167124
181	0xbc57ca19	-0.013170742
182	0xbde8bc44	-0.11364034
183	0xbdf66548	-0.120310366
184	0x3ebeb972	0.3725086
185	0xbdaa2ef5	-0.083097376
186	0xbca98100	-0.020691395
187	0x3b9926dd	0.0046738223
188	0xbe007129	-0.12543167
189	0xbdd4e18b	-0.103945814
190	0x3c93183c	0.017955892
191	0x3e99de66	0.3005249
192	0x3e8d3360	0.2757826
193	0x3eadf688	0.3397715
194	0xbecf1d02	-0.4045182
195	0xbd6f04e5	-0.058354277
196	0xbe448045	-0.19189556
197	0xbe67bb5e	-0.22630069
198	0xbeac1b11	-0.336144
199	0x3dd356a2	0.10319258
200	0x3c5336d6	0.012891492
201	0x3af9d108	0.0019059489
202	0xbecfa4f6	-0.40555543
203	0x3ed2fe5a	0.4120968
204	0x3df79125	0.12088231
205	0x3e89a759	0.2688549
206	0x3b20bff1	0.0024528468
207	0x3b1a0f38	0.0023507606
208	0xc0247acb	-2.5699947
209	0xbe0b2518	-0.13588369
210	0xbd45b781	-0.048270706
211	0xbe7a8c94	-0.24467689
212	0xbbcce219	-0.006252539
213	0xbc2823fc	-0.010262486
214	0xbeeed518	-0.46646953
215	0x3db02d41	0.086023815
216	0x3f2a76dc	0.66587615
217	0x3e6cff3c	0.23144239
218	0x3be89f75	0.007099087
219	0x39a6fce3	0.00031850403
220	0xbc61ee63	-0.013789746
221	0x3ed6e890	0.41974306
222	0xbe845f58	-0.25853992
223	0x3dc043c8	0.09387928
224	0xbe191f88	-0.14953434
225	0xbcb57230	-0.022149175
226	0xbd661410	-0.056171477
227	0xbe82a054	-0.25512946
228	0x3c495717	0.01228883
229	0x3c20ae23	0.009807142
230	0xbc0fe8c0	-0.008783519
231	0xbe8fbf8c	-0.28075826
232	0xbdf8c5f4	-0.121471316
233	0xbd5dbd3c	-0.054135546
234	0x3ecb50ff	0.39710233
235	0xbd938351	-0.07202781
236	0xb8d3a0f9	-0.000100912475
237	0xb9b99c83	-0.0003540256
238	0xbf0cedcc	-0.5505035
239	0xbf05cb89	-0.52263695
240	0x3f003d9c	0.5009401
241	0xbf01c408	-0.50689745
242	0xbb2815c8	-0.0025647748
243	0x3b66bf36	0.0035209185
244	0x3e6aabbb	0.22917072
245	0x3f2bd11e	0.6711596
246	0x3d7f95da	0.06239877
247	0xbf99cfa5	-1.2016493
248	0x3bed8639	0.0072486666
249	0xbcbce71d	-0.023059422
250	0x3d5eedf6	0.054426156
251	0x3d86941f	0.065712206
252	0xbcd11294	-0.025521554
253	0xbe57efc5	-0.21087559
254	0xbb811187	-0.003938857
255	0xbb804f9b	-0.0039157397

net.0.bias f4 [64]
0	0x3e730310	0.23731637
1	0xbd515e97	-0.0511156
2	0x3ef0bd52	0.4701944
3	0x3d8eabad	0.06966338
4	0x3dc09303	0.0940304
5	0x3eafc74d	0.34331742
6	0x3da16fcf	0.07882654
7	0xbe223abd	-0.1584272
8	0xbf0ba636	-0.5455049
9	0xbdfb8900	-0.1228199
10	0x3d8a3f50	0.06750357
11	0xbea15339	-0.31508806
12	0x3eab35d6	0.3343951
13	0x3ef66282	0.4812203
14	0x3ec633f2	0.38711506
15	0x3bc1d259	0.005914968
16	0xbebb30f9	-0.365608
17	0xbe286dba	-0.16448107
18	0x3e9631f9	0.29335
19	0xbf1f04f2	-0.6211692
20	0xbca5e033	-0.020248508
21	0xbe1a28a4	-0.15054566
22	0xbd2f54ef	-0.04280561
23	0xbe6b8c7b	-0.23002808
24	0xbecad5dd	-0.3961629
25	0x3e1c5a00	0.15268707
26	0x3da96e71	0.08273018
27	0xbefba462	-0.49148852
28	0xbea28955	-0.317454
29	0x3d7c1eab	0.061552685
30	0xbeb1fc7a	-0.34762937
31	0xbe9ca048	-0.30591035
32	0xbf0d2d32	-0.5514709
33	0xbe088569	-0.13332142
34	0x3e8fd936	0.28095406
35	0x3e5f397a	0.2179927
36	0xbe9d107b	-0.30676636
37	0xbebd1553	-0.36930332
38	0xbbedede0	-0.007261023
39	0x3ef58fd8	0.47961307
40	0xbbed2b73	-0.0072378456
41	0x3db65139	0.08902211
42	0x3e805130	0.2506194
43	0x3ec10d2d	0.37705365
44	0xbf24cc1c	-0.64373946
45	0xbe8237ee	-0.25433296
46	0x3e802374	0.2502705
47	0x3e5ed559	0.21761073
48	0x3d8ea2fa	0.06964679
49	0x3ee035ac	0.43790948
50	0xbec264b7	-0.37967464
51	0x3e4f1d96	0.2022613
52	0x3ea77b88	0.32711434
53	0xbdec6164	-0.11542013
54	0x3c96feb5	0.018432
55	0x3e327708	0.1742822
56	0x3c9c3de1	0.019072475
57	0x3ead32a5	0.338277
58	0x3d9af8b9	0.07566971
59	0x3ea6d715	0.3258597
60	0x3e4b990f	0.19882606
61	0xbe1017da	-0.14071599
62	0xbe81ced8	-0.25353122
63	0xbed0d912	-0.40790612

net.2.weight f4 [128, 64]
0	0x3cec2ee9	0.028830962
1	0x3cc057b2	0.023479316
2	0x3d8070b8	0.062714994
3	0xbda2c546	-0.07947783
4	0xbc2371a3	-0.009975824
5	0x3de32baa	0.11092313
6	0xbd985f3c	-0.074400395
7	0xbd5b053f	-0.0534718
8	0xbe12094e	-0.14261362
9	0x3c978ca8	0.018499687
10	0xbcde753c	-0.027155511
11	0x3df99480	0.12186527
12	0xbd6e56f5	-0.058188397
13	0xbc812d65	-0.015768716
14	0xbd22cb09	-0.03974441
15	0xbc450230	-0.012024447
16	0xba87a400	-0.0010348558
17	0x3d9d1ba6	0.07671289
18	0xbdefe8b9	-0.1171431
19	0x3d985328	0.07437736
20	0x3dd2b010	0.102874875
21	0x3dcd3f57	0.10021847
22	0x3c53ab7a	0.012919301
23	0x3dab21f2	0.08356084
24	0x3d8ed651	0.06974471
25	0xbdff14e1	-0.12455154
26	0xbb3082bf	-0.00269334
27	0xbc603dd2	-0.013686614
28	0xbc46e8e4	-0.012140486
29	0xbdc4fda3	-0.0961869
30	0xbda7e2d8	-0.08197564
31	0x3c5d64d0	0.013512805
32	0xbdd965d2	-0.10615124
33	0xbdcf271f	-0.10114884
34	0x3d7065f8	0.058690995
35	0xbdc28fae	-0.09500061
36	0xbdcfe64b	-0.10151347
37	0x3dc2c032	0.095093146
38	0x3b649aa1	0.0034882205
39	0xbda49d2a	-0.08037789
40	0xbd55320c	-0.05204968
41	0x3d4a153f	0.049336668
42	0xbdddccdc	-0.108300894
43	0x3d29e96b	0.04148237
44	0xbc2112f5	-0.00983118
45	0xbcf70b8d	-0.030156875
46	0x3d1575f4	0.036489442
47	0x3c964548	0.018343583
48	0x3dd52c69	0.10408861
49	0xbdcc45cf	-0.099742524
50	0xbd0e7d44	-0.03478743
51	0x3c80a407	0.015703214
52	0x3d5d5836	0.054039203
53	0xbd54d92c	-0.051964924
54	0x3dabee62	0.08395077
55	0xbd5ac858	-0.05341372
56	0xbd81ed82	-0.06344129
57	0xbdd69974	-0.104784876
58	0xbd0e7088	-0.034775287
59	0x3da46b53	0.08028283
60	0xbda22970	-0.0791806
61	0x3dcde28c	0.10052976
62	0xbdf9ee5e	-0.12203668
63	0x3dbc5bbd	0.09197185
64	0xbcc82f9d	-0.024436766
65	0xbdd0892a	-0.10182412
66	0x3d949c9c	0.07256433
67	0xbdc09d22	-0.09404971
68	0xbda85065	-0.08218459
69	0x3c89686e	0.016773429
70	0xbd8e9b09	-0.06963164
71	0x3c113a64	0.008864019
72	0xbcdfe54e	-0.02733102
73	0x3d313bb0	0.043269813
74	0xbdd6b85e	-0.10484384
75	0xbcabb1b8	-0.020958766
76	0x3dcccf96	0.100005314
77	0xbd9f1a16	-0.077686474
78	0xbddc142f	-0.10746037
79	0xbd3541c8	-0.044252187
80	0x3b30f300	0.0027000308
81	0xbd873b40	-0.06603098
82	0xbd51fd50	-0.05126697
83	0x3d45f480	0.048328876
84	0xbcb17110	-0.021660358
85	0xbcf10195	-0.0294197
86	0xbca0e7e2	-0.01964182
87	0xbde1992a	-0.11015542
88	0xbd6a55ec	-0.057210848
89	0xbd44377a	-0.04790447
90	0x3d0a0a50	0.03370124
91	0x3d9ca386	0.07648377
92	0xbc812cb2	-0.015768383
93	0x3d05cea8	0.032667786
94	0xbdd94422	-0.106086984
95	0x3c55ce50	0.013049677
96	0xbdda2218	-0.10651034
97	0xbd33abf0	-0.043865144
98	0xbd2839a1	-0.041070584
99	0xbbbf7c9e	-0.005843713
100	0x3dc9977a	0.09843345
101	0xbd080a2c	-0.033212826
102	0x3bc1ea20	0.0059178025
103	0xbd6f5a55	-0.058435757
104	0x3c2cdc39	0.010550552
105	0xbbeb7da0	-0.0071866065
106	0xbd6b4c5e	-0.057445876
107	0xbddbd7a0	-0.107344866
108	0xbd3e01f5	-0.046388585
109	0xbd8b9844	-0.06816152
110	0xbddeecb5	-0.10884992
111	0x3de26fc7	0.11056476
112	0xbd8e5e7e	-0.06951617
113	0xbd7c71b4	-0.061631873
114	0x3d870f85	0.06594757
115	0xbd32802a	-0.043579258
116	0x3dbd3ec7	0.092404895
117	0x3d381488	0.044941455
118	0x3c805038	0.015663251
119	0x3d317ebe	0.04333376
120	0xbdbe6f85	-0.092986144
121	0x3d99131d	0.07474349
122	0x3d85a88b	0.06526288
123	0xbd60f0ac	-0.054917023
124	0xbdcdd60e	-0.10050593
125	0xbde72550	-0.11286414
126	0xbdcc6945	-0.09981016
127	0xbdd3df64	-0.10345343
128	0x3d821d2f	0.063532226
129	0xbd0eefe2	-0.03489674
130	0x3d92e731	0.071730025
131	0xbd32d96c	-0.04366438
132	0x3cf73470	0.030176371
133	0xbd8d7083	-0.069062255
134	0xbd0243c3	-0.031802904
135	0x3dc9e8c4	0.0985885
136	0xbc9e2284	-0.019303568
137	0xbdc382a8	-0.09546405
138	0xbdba03ea	-0.09082778
139	0x3d6f2ab4	0.058390334
140	0xbd3d2b56	-0.046183906
141	0xbd709e1c	-0.058744535
142	0xbdc75dc4	-0.09734681
143	0xbcf61a6a	-0.030041892
144	0xbdb085bc	-0.08619258
145	0xbd91262b	-0.07087358
146	0x3d1c63c7	0.038181093
147	0xbdb269d6	-0.08711593
148	0x3d9dd1e8	0.07706052
149	0xbdf01090	-0.11721909
150	0x3cd32640	0.025775075
151	0x3db22f00	0.08700371
152	0xbbf7e0ce	-0.0075646406
153	0x3d6ccbe8	0.057811648
154	0x3d9ab942	0.075548664
155	0xbd91cd96	-0.071192905
156	0xbdeb0d8e	-0.11477195
157	0xbd1fc307	-0.039004352
158	0xbd7d0960	-0.06177652
159	0xbd9fedae	-0.07809006
160	0x3d83aba2	0.06429221
161	0xbd824719	-0.06361217
162	0x3cfcde15	0.030867616
163	0x3d17f4a8	0.037098557
164	0x3d3971c2	0.045274504
165	0x3dc250ce	0.094880685
166	0xbda08648	-0.07838112
167	0xbdcd7068	-0.100312054
168	0x3b70083d	0.0036626004
169	0xbe0843dd	-0.13307138
170	0xbc3b311e	-0.011425285
171	0xbcb05abe	-0.021527644
172	0x3da2bc32	0.07946052
173	0xbe092e4c	-0.13396567
174	0x3df1c8dc	0.11805889
175	0xbddf5711	-0.109052785
176	0x3dae1607	0.08500295
177	0xbdeebbeb	-0.11656936
178	0xbe163b88	-0.14671147
179	0xbc3742ab	-0.0111853285
180	0xbd84fdc3	-0.06493714
181	0xbddf9384	-0.10916808
182	0x3dd9d292	0.10635866
183	0xbde9f5e7	-0.11423855
184	0xbd9f4026	-0.07775907
185	0x3ceee1e7	0.029160453
186	0x3c09ae49	0.008403369
187	0xbe2079ec	-0.1567151
188	0x3d8a6cdd	0.06759045
189	0xbdde2c98	-0.10848349
190	0x3df95989	0.121752806
191	0xbd079c89	-0.033108268
192	0x3dc483f6	0.09595482
193	0xbbdaff79	-0.0066832867
194	0xbe5ce0cc	-0.21570128
195	0xbd75b08c	-0.05998282
196	0x3c525b82	0.0128392
197	0xbdd922a8	-0.10602313
198	0x3c068025	0.008209263
199	0xbddc698f	-0.10762321
200	0xbe97902a	-0.29602176
201	0xbdf27e50	-0.118404984
202	0x3d808991	0.06276239
203	0x3cb8cd68	0.022558883
204	0xbc91e4f9	-0.017809378
205	0xbdd70da1	-0.105006464
206	0xbd3f59dd	-0.04671656
207	0x3d655bf5	0.0559959
208	0x3cc0a0cc	0.023514174
209	0xbdd72153	-0.10504403
210	0xbe6bd754	-0.2303136
211	0xbe0fb699	-0.14034499
212	0x3e16231b	0.14661829
213	0xbd6fce11	-0.05854613
214	0xbc961f3d	-0.018325442
215	0xbddba8d9	-0.107255645
216	0xbc9dc5a7	-0.019259287
217	0x3cd49311	0.025949033
218	0xbc00ff4b	-0.007873367
219	0x3d65c658	0.05609736
220	0xbc233e21	-0.009963543
221	0x3d6a17ac	0.05715148
222	0xbdaf9c82	-0.08574773
223	0x3ce850d4	0.028358854
224	0xbe3ab5b4	-0.18233377
225	0xbbbedd95	-0.0058247545
226	0xbe286938	-0.16446388
227	0xbcbcf7e0	-0.023067415
228	0x3df7d533	0.121012114
229	0x3dcccd7c	0.100001305
230	0x3cab3a3b	0.02090179
231	0xbdb6ed23	-0.08931949
232	0xbe3f7a39	-0.18698968
233	0x3d9d5aee	0.07683359
234	0xbdf61342	-0.12015392
235	0xbc8534ee	-0.01626059
236	0x3dedbb05	0.11607937
237	0x3dbbb0f3	0.0916461
238	0xbeae2fa2	-0.34020716
239	0x3d20545d	0.039142955
240	0x3dbb7e85	0.09154991
241	0x3c2c7d3e	0.010527907
242	0xbb9f81ad	-0.0048677535
243	0xbde70d5d	-0.11281846
244	0xb9e37a59	-0.0004338797
245	0xbd95ddfa	-0.07317729
246	0xbd0b6086	-0.0340276
247	0x3df5d1e6	0.120029256
248	0xbd489f55	-0.048980076
249	0xbe95b4b6	-0.29239434
250	0xbeb7aec8	-0.35875535
251	0x3cfdc92c	0.030979715
252	0xbe02860b	-0.12746446
253	0x3df87bc0	0.121329784
254	0xbe003f0a	-0.12524047
255	0xbe2758b5	-0.16342433

net.2.bias f4 [128]
0	0xbd80e1e7	-0.062930875
1	0xbdc8264d	-0.0977293
2	0xbd6f27c9	-0.05838755
3	0xbd558ff8	-0.052139252
4	0xbd1a17e0	-0.037620425
5	0x3c9e8cdd	0.019354278
6	0xbd46b5b1	-0.04851312
7	0xbd101684	-0.035177723
8	0x3ec977fc	0.39349353
9	0xbf00ff0c	-0.5038917
10	0x3e2379c0	0.15964413
11	0xbdb69f7d	-0.08917139
12	0x3dcc717b	0.09982582
13	0xbe3a2eda	-0.18181935
14	0xbd315cb4	-0.0433013
15	0xbd9249db	-0.07142993
16	0x3d64228f	0.05569702
17	0xbeaf84c0	-0.34280968
18	0x3d634bcf	0.05549222
19	0x3ce01ca3	0.027357405
20	0xbdd6442f	-0.10462224
21	0xbdd1b8e0	-0.1024034
22	0x3eaf696c	0.34260118
23	0x3db686c0	0.0891242
24	0x3d9b2047	0.07574516
25	0x3d25a2a8	0.040438324
26	0x3d820d7c	0.06350228
27	0xbe05b5a1	-0.13057567
28	0xbdf67c2e	-0.12035404
29	0x3ea65329	0.3248532
30	0xbda48b2c	-0.080343574
31	0xbd29ded0	-0.041472256
32	0xbde43e03	-0.1114464
33	0x3caf0e77	0.021369202
34	0xbe616c36	-0.22013935
35	0x3d8c512e	0.06851421
36	0x3def39c3	0.11680939
37	0xbbe72fde	-0.0070552668
38	0x3d11892a	0.0355312
39	0x3e41b20a	0.18915573
40	0x3eb24175	0.34815565
41	0xbdccea16	-0.10005586
42	0x3e0d3ec1	0.1379347
43	0xbd7214d1	-0.059101883
44	0xbd355a17	-0.04427537
45	0xbd437dd1	-0.04772741
46	0x3e32d5ae	0.17464325
47	0xbd3f087e	-0.04663896
48	0xbe508a29	-0.20365204
49	0xbd7ccde4	-0.06171979
50	0x3d524fb5	0.051345546
51	0x3d51df7d	0.051238526
52	0x3c8cb0d8	0.01717417
53	0x3e554faa	0.2083117
54	0xbd8b6fa4	-0.06808403
55	0x3c6ba3a1	0.014382274
56	0x3cfadf35	0.030624012
57	0xbe535a2a	-0.20639864
58	0xbcf6553b	-0.030069938
59	0xbf07b35f	-0.53008074
60	0x3e395ff3	0.18103008
61	0xbd206d97	-0.039167013
62	0xbea8b2a2	-0.32948786
63	0x3e20af71	0.15691926
64	0xbd196b34	-0.037455752
65	0xbe08a62b	-0.13344638
66	0xbe8ac428	-0.2710278
67	0xbe1112b7	-0.14167295
68	0xbc48206d	-0.012214762
69	0xbe53a77d	-0.2066936
70	0xbdf39e0b	-0.11895379
71	0x3db5ce69	0.0887726
72	0x3e16451c	0.146748
73	0xbe279421	-0.163651
74	0xbd69191b	-0.056908708
75	0x3d957dba	0.07299371
76	0xbd7a5228	-0.061113507
77	0x3c46db30	0.012137219
78	0xbe28bcb3	-0.16478233
79	0xbe10839f	-0.1411271
80	0xbe6ea360	-0.2330451
81	0xbeb77947	-0.35834715
82	0x3e230f21	0.1592374
83	0xbe932fcb	-0.287474
84	0xbc07148e	-0.008244647
85	0xbc400209	-0.011719235
86	0x3e8fcf9b	0.28088078
87	0xbd87c91e	-0.06630157
88	0xbc2cfff7	-0.010559074
89	0xbd71bc7a	-0.059017636
90	0xbefa0591	-0.48832372
91	0x3e66c02f	0.2253425
92	0xbe5036d2	-0.20333412
93	0xbd6c7e27	-0.057737496
94	0xbf10f2cf	-0.56620497
95	0xbecca599	-0.3997009
96	0xbd116d64	-0.035504714
97	0x3e5fd22c	0.21857518
98	0xbc4cee01	-0.012507916
99	0xbd744bff	-0.059642788
100	0xbd8d7ebb	-0.069089375
101	0xbf108881	-0.5645829
102	0xbd294aeb	-0.041331213
103	0xbdd4b880	-0.10386753
104	0x3c2390d2	0.009983258
105	0xbcca672e	-0.024707403
106	0xbe00d342	-0.12580588
107	0x3e63302c	0.22186345
108	0xbdda19c2	-0.10649444
109	0xbbbdf03a	-0.0057964595
110	0x3cadc9c3	0.021214372
111	0xbeba5d28	-0.36399198
112	0x3ea46fdd	0.32116595
113	0x3d54238e	0.05179172
114	0xbe1bedae	-0.15227386
115	0xbdfd929a	-0.12381478
116	0xbdaff3b8	-0.085914075
117	0xbc9a673f	-0.01884806
118	0xbe3baf63	-0.18328623
119	0xbd17c84a	-0.037056245
120	0x3e54c8f7	0.20779787
121	0xbe941704	-0.2892381
122	0xbeef537e	-0.46743387
123	0xbdf3ce7b	-0.119046174
124	0x3e3dad78	0.18523204
125	0x3ddad6c6	0.10685496
126	0x3e099f2f	0.1343963
127	0x3d21f0a4	0.039536133

net.4.weight f4 [128, 128]
0	0xbb057318	-0.002036279
1	0xbd314162	-0.043275245
2	0x3d74f162	0.059800513
3	0x3cfc00cc	0.030762099
4	0x3d4fd43d	0.050739516
5	0x3d1b4d01	0.037915234
6	0xbc828886	-0.01593424
7	0x3ad24a54	0.001604388
8	0x3b7f0675	0.003891376
9	0xbd134f70	-0.03596443
10	0x3ce4e0bd	0.027939195
11	0x3cf6e404	0.030138023
12	0xbda0785f	-0.07835459
13	0xbca122ae	-0.019669857
14	0x3d81b541	0.063333996
15	0xbd3df76d	-0.04637854
16	0x3cbeb6a3	0.023280447
17	0xbd94d155	-0.072664894
18	0x3c11ab11	0.008890883
19	0xbd48451d	-0.048894037
20	0x3d333961	0.043755893
21	0x3db17d97	0.086665325
22	0xbdd24f52	-0.102690354
23	0xbc29f485	-0.010373239
24	0xbc234f08	-0.009967573
25	0xbca2f85c	-0.019893818
26	0xbc382f9b	-0.011241819
27	0x3d996e88	0.07491785
28	0xbd16a729	-0.03678051
29	0xbdc812f9	-0.09769244
30	0x3ca100dc	0.01965373
31	0x3d204bbe	0.039134733
32	0x3c93fba6	0.018064331
33	0x3cb9ed67	0.02269621
34	0x3d149ec1	0.036284212
35	0x3c759c76	0.0149909165
36	0xbc8c24cd	-0.017107392
37	0x3d442cca	0.047894277
38	0x3abbfe00	0.0014342666
39	0xbce32bcc	-0.027730845
40	0x3c96b5f7	0.018397314
41	0xbd08f8af	-0.03344029
42	0x3c65b17a	0.0140193645
43	0xbd81c492	-0.06336321
44	0x3d19e647	0.037573125
45	0xbd31fbca	-0.043453015
46	0xbd3e2f13	-0.046431612
47	0x3d9eb8cb	0.0775009
48	0xbd42189e	-0.047386758
49	0x3c32b770	0.010907993
50	0xbdb5bc49	-0.08873803
51	0xbd1b7d01	-0.03796101
52	0xbd6f2bd2	-0.0583914
53	0xbd8829c2	-0.0664859
54	0x3ce5ea94	0.028065957
55	0x3c5d21a7	0.013496793
56	0xbd0a633b	-0.03378604
57	0xbbfd7868	-0.007735301
58	0x3d25f440	0.040516138
59	0xbdebb36e	-0.11508833
60	0x3d9cdcb7	0.076592855
61	0x3d6f2c70	0.05839199
62	0xbbddf717	-0.00677384
63	0xbd77342f	-0.0603525
64	0xbd3e5ec8	-0.04647711
65	0x3c866edc	0.016410284
66	0xbd7cd3cc	-0.061725423
67	0xbca31139	-0.019905673
68	0xbd02f5ad	-0.031972576
69	0xbdf7594c	-0.12077579
70	0xbd46bc79	-0.048519585
71	0xbd079b52	-0.03310711
72	0xbdd1456f	-0.102183215
73	0x3d6a92e7	0.057269003
74	0xbd855039	-0.06509442
75	0x3d1a07d4	0.03760512
76	0xbcf16d8d	-0.029471183
77	0x3d9a21c7	0.07525974
78	0xbc0deea7	-0.008662856
79	0x3d342f03	0.043990146
80	0x3ca70c74	0.02039168
81	0x3ccd72c6	0.025079142
82	0x3d52ece4	0.051495448
83	0xbd1be54d	-0.038060475
84	0xbd886f60	-0.06661868
85	0xbb83dfe0	-0.0040244907
86	0xbdbffd07	-0.09374433
87	0xbd20cb82	-0.03925658
88	0xbd824a5c	-0.06361839
89	0x3d4cb19c	0.04997407
90	0xbbb2f030	-0.0054607615
91	0xbd0e8a7b	-0.034800034
92	0xbe8fc3d0	-0.2807908
93	0xbd23ba7c	-0.039972767
94	0x3cff4b61	0.031163873
95	0x3cefc386	0.029268038
96	0x3bf09deb	0.007343044
97	0x3d15c8d0	0.036568463
98	0xbce6e254	-0.028184094
99	0xbc7a6020	-0.015281707
100	0x3d8aae3b	0.06771513
101	0x3e25bf8d	0.16186352
102	0xbca5c306	-0.020234596
103	0x3d938103	0.072023414
104	0xbda8f202	-0.08249284
105	0x3d66e4aa	0.056370415
106	0xbe18a200	-0.14905548
107	0x3d1111cd	0.035417367
108	0xbdc4710a	-0.09591873
109	0x3cde1074	0.027107455
110	0x3d206a5f	0.039163943
111	0xbdaf080e	-0.08546458
112	0x3cc4e7b6	0.02403627
113	0x3da63d13	0.08117118
114	0xbcfcd4ea	-0.030863244
115	0x3da94f4b	0.08267077
116	0xbda3dd49	-0.08001191
117	0xbd712f2c	-0.058882877
118	0xbcd5e9b1	-0.02611241
119	0xbdbc4a48	-0.091938555
120	0xbc89430d	-0.016755605
121	0xbd6fd037	-0.05854818
122	0x3dd84a6c	0.1056107
123	0x3cf1d056	0.029518288
124	0xbda05210	-0.07828152
125	0x3ca17f07	0.019713892
126	0xbd4b1115	-0.049576838
127	0xbd16d36c	-0.03682272
128	0x3b9ce4e7	0.0047880295
129	0xbd94cc4a	-0.072655275
130	0x3ca10728	0.019656733
131	0x3d240c30	0.040050685
132	0xbd25d8ef	-0.040490087
133	0xbd60b82f	-0.05486315
134	0xbc91baae	-0.017789211
135	0xbd4717e3	-0.048606765
136	0xbca91393	-0.020639217
137	0xbd5cdd5d	-0.053922046
138	0x3d1f788d	0.038933326
139	0x3d81dc7b	0.063408814
140	0xbd94b210	-0.07260525
141	0xbd4be187	-0.049775627
142	0xbde21ab6	-0.11040251
143	0x3d8c60e3	0.06854417
144	0x3d08b206	0.0333729
145	0x3d446c5c	0.047954902
146	0xbc60b2f7	-0.013714544
147	0xbd24fd7e	-0.04028081
148	0x3d7bd5ad	0.061483074
149	0xbd80755f	-0.06272387
150	0xbdcf3807	-0.10118108
151	0x3d577d20	0.052609563
152	0xbbb41460	-0.005495593
153	0xbcf43c76	-0.029813986
154	0xbc0071cb	-0.00783963
155	0x3cdcda09	0.026959436
156	0xbc9dc5f4	-0.01925943
157	0xbd4864ff	-0.048924442
158	0xbd871d6e	-0.0659741
159	0x3bdf5a40	0.0068161786
160	0xbd6f8e71	-0.058485452
161	0xbd5e55a4	-0.054280892
162	0xbc9a3775	-0.018825272
163	0xbcd37003	-0.025810247
164	0xbc61c69b	-0.013780261
165	0xbcead0a0	-0.028663933
166	0x3da03fe1	0.07824684
167	0x3d5b7097	0.05357417
168	0xbd6c6bd4	-0.05772002
169	0xba339600	-0.000685066
170	0xbd19e323	-0.03757013
171	0xbcfd9e09	-0.030959146
172	0x3d26fd7a	0.040769078
173	0xbd962b84	-0.07332519
174	0xbd33ecb3	-0.043926906
175	0x3d2f63a3	0.04281963
176	0x3d8a02e5	0.06738833
177	0xbc159fc0	-0.009132326
178	0xbd8615f8	-0.06547159
179	0xbcb5e8e9	-0.022205787
180	0x3d9d2558	0.076731384
181	0x3cf9ffcf	0.030517487
182	0xbd979aeb	-0.07402595
183	0xbd48bbf0	-0.049007356
184	0x3d917d4e	0.07103978
185	0xbc9a233e	-0.018815633
186	0xbc9d40e7	-0.019195987
187	0x3ceb79cb	0.028744599
188	0x3d3fdd78	0.04684207
189	0xbdca35bb	-0.098735295
190	0x3d6a2105	0.057160396
191	0xbdde673e	-0.10859536
192	0xbd00dcde	-0.031460635
193	0xbac21480	-0.0014807135
194	0x3b99c65b	0.0046928353
195	0xbc53a6b8	-0.012918167
196	0xbd9989f0	-0.074970126
197	0xbd876e74	-0.06612864
198	0xbdb61541	-0.088907726
199	0x3c8c8b33	0.01715622
200	0x3ca3a7bb	0.019977441
201	0x3d94712d	0.07248149
202	0xbcd8525e	-0.026406463
203	0x3d8981de	0.06714223
204	0xbdfcdee1	-0.12347198
205	0xbd9a3546	-0.07529692
206	0xbc3e2b4e	-0.011607004
207	0x3c9b22ad	0.018937433
208	0x3c9c553c	0.019083612
209	0xbca0bbe1	-0.019620838
210	0xbb1a272e	-0.0023521888
211	0x3d93e45c	0.072212905
212	0xbd271478	-0.040791005
213	0x3d23c5c5	0.03998353
214	0x3a93e2e7	0.0011282832
215	0x3d72aad9	0.059244964
216	0xbd026d7b	-0.03184269
217	0xbda8c8f3	-0.08241453
218	0x3c90a9aa	0.017659027
219	0x3c062e23	0.008189711
220	0xbc31ea76	-0.0108591225
221	0x3d3f598a	0.04671625
222	0xbd9e941e	-0.07743095
223	0x398213e5	0.00024810355
224	0xbda6aa76	-0.081379816
225	0xbd050df7	-0.03248402
226	0x3b6101c0	0.0034333318
227	0x3caddc10	0.021223098
228	0xb9a9b200	-0.00032366812
229	0xbd99b0f7	-0.075044565
230	0xbd99d3b9	-0.07511086
231	0x3d4f21fa	0.050569512
232	0x3cad540a	0.021158237
233	0xbcc5c078	-0.024139628
234	0xbc1d4edd	-0.009601322
235	0xbd4bc4cd	-0.04974823
236	0x3bce8891	0.006302901
237	0xbd635645	-0.055502195
238	0xbcbca1a7	-0.0230263
239	0xbc6f3405	-0.014599805
240	0x3d971716	0.0737745
241	0x3c9fb3b4	0.019494869
242	0x3c01a4e6	0.00791285
243	0x3db231af	0.08700883
244	0x3da20c8b	0.07912549
245	0xbc751c23	-0.014960322
246	0x3c576511	0.013146655
247	0x3dab4e43	0.083645366
248	0xbdadc283	-0.08484366
249	0xbdc91a40	-0.0981946
250	0x3d49e07c	0.04928635
251	0x3c56abf5	0.013102521
252	0x3bb6156b	0.0055567524
253	0x3d152a46	0.03641727
254	0xbda91d0e	-0.08257495
255	0x3d73bd06	0.05950644

net.4.bias f4 [128]
0	0xbdb15aca	-0.08659895
1	0xbd9d4699	-0.07679481
2	0xbdf050d3	-0.11734166
3	0xbd5dab50	-0.054118454
4	0xbd9a8e37	-0.075466566
5	0x3ceaef99	0.028678702
6	0xbbc39d3b	-0.005969671
7	0x3cf0c7b0	0.029392093
8	0x3d108b83	0.0352893
9	0xbdb665e9	-0.089061566
10	0xbd62ab87	-0.055339362
11	0xbce07bde	-0.027402814
12	0xbd65d359	-0.05610976
13	0xbdc65f59	-0.09686155
14	0xbdd2ffbc	-0.10302684
15	0x3e2606c2	0.16213515
16	0xbd00e25a	-0.031465866
17	0xbe1e202d	-0.15441962
18	0xbe3f4fb9	-0.18682756
19	0xbdd99374	-0.106238276
20	0xbc7b827b	-0.015350933
21	0x39281bbc	0.0001603206
22	0xbe0a0075	-0.13476737
23	0xba31f6a6	-0.00067887676
24	0xbca6f1ff	-0.020379065
25	0x3e8d3419	0.2757881
26	0xbd4f052f	-0.050542053
27	0xbd98c157	-0.07458752
28	0xbd6fc38c	-0.058536097
29	0xbe75bce0	-0.23997831
30	0xbd13c8f3	-0.036080312
31	0xbd89d552	-0.06730141
32	0x3cca1b23	0.024671143
33	0xbd4b8e29	-0.04969612
34	0xbc260749	-0.010133573
35	0xbc42adf7	-0.011882297
36	0x3ce6d0e9	0.028175788
37	0xbf10cfb9	-0.5656696
38	0xbd304bc4	-0.043041006
39	0x3d911351	0.070837624
40	0xbd1115d3	-0.035421204
41	0xbdedc942	-0.116106525
42	0xbc57fd28	-0.013182916
43	0xbd395634	-0.045248225
44	0xbe48a741	-0.19595052
45	0x3e56e7d9	0.2098688
46	0xbd76b38f	-0.060229834
47	0x3c9aaab5	0.018880228
48	0xbebb7a80	-0.36616898
49	0x3e75f973	0.24020939
50	0xbcd8bd3f	-0.026457427
51	0xbd69f9e6	-0.057123087
52	0x3d1b9bda	0.03799043
53	0xbc29390f	-0.010328545
54	0x3cfe1f4d	0.031020785
55	0xbd65d1c2	-0.056108244
56	0xbd188e18	-0.037244886
57	0xbcea3574	-0.028589942
58	0xbd802423	-0.062568925
59	0xbd97b876	-0.0740823
60	0xbd4966ef	-0.04917043
61	0xbc92a2df	-0.017899929
62	0x3e8edf2e	0.27904648
63	0xbc465fbd	-0.012107787
64	0xbcb60198	-0.022217557
65	0xbd8c3829	-0.06846649
66	0xbd8a7ce0	-0.06762099
67	0xbe11525d	-0.14191575
68	0xbc766e8a	-0.015041003
69	0xbf65aa7a	-0.8971325
70	0xbdca584b	-0.09880122
71	0xbde3a918	-0.111162364
72	0xbd0100c7	-0.031494882
73	0xbda76931	-0.081743605
74	0xbda4a1d2	-0.08038677
75	0xbdb131d0	-0.08652079
76	0xbda14819	-0.0787508
77	0xbbeb4a78	-0.007180508
78	0xbccf7b24	-0.025327273
79	0xbcbc90a8	-0.023018196
80	0xbddc2cb6	-0.107507154
81	0xbdacb285	-0.084324874
82	0x3d4f925b	0.050676685
83	0xbd4f553f	-0.050618406
84	0xbe2bd34e	-0.16779825
85	0xbd375e9d	-0.044767965
86	0xbde2ca01	-0.110736854
87	0x3bbf2e17	0.0058343518
88	0xbd550e34	-0.0520155
89	0x3c2f11a9	0.010685363
90	0xbd9a0208	-0.07519919
91	0x3e91db9c	0.2848786
92	0x3d1ba597	0.037999716
93	0xbd0212b2	-0.03175611
94	0x3e9912c4	0.2989713
95	0xbe49faed	-0.19724627
96	0xbc756167	-0.014976836
97	0xbc216973	-0.009851801
98	0xbd91359c	-0.07090303
99	0x3d141ba6	0.03615918
100	0xbd4bd420	-0.049762845
101	0x3ea50166	0.3222763
102	0x3ce89b22	0.028394286
103	0xbfa06870	-1.2531872
104	0xbd3f4dbd	-0.046704996
105	0xbd0ff861	-0.035148982
106	0xbd1039fc	-0.03521155
107	0xbd5facba	-0.054608084
108	0xbd03e70a	-0.032202758
109	0xbcbe6b62	-0.023244563
110	0x3e88c7c8	0.2671492
111	0x3d564541	0.05231214
112	0xbdc86793	-0.0978538
113	0x3c58f703	0.013242486
114	0xbd4d46aa	-0.05011622
115	0x3ce412bf	0.02784097
116	0x3e4a1bd2	0.19737175
117	0xbd956ac7	-0.07295757
118	0xba936f86	-0.0011248447
119	0xbd1d82d6	-0.038454853
120	0xbde63562	-0.11240651
121	0x3c81620d	0.015793825
122	0x3c9947ac	0.018710934
123	0x3d33ab84	0.043864742
124	0xbdcda68c	-0.10041532
125	0xbe0090a3	-0.12555175
126	0xbde9d40b	-0.11417397
127	0xbd55db24	-0.052210942

net.6.weight f4 [64, 128]
0	0xbd87dfbe	-0.06634472
1	0x3d8ae436	0.06781809
2	0xbcb83f9e	-0.022491273
3	0x3dc502b5	0.09619657
4	0x3db14272	0.086552516
5	0x3d162ddc	0.03666483
6	0xbd869fc8	-0.065734446
7	0x3d09d9ff	0.033655163
8	0x3d3fd362	0.04683245
9	0xbd78b483	-0.060719024
10	0x3da75be1	0.081718214
11	0xbd4eaba1	-0.050456647
12	0x3d389b31	0.045069877
13	0xbc16b8cb	-0.0091993315
14	0xbd958f61	-0.07302738
15	0xbce967c4	-0.028491862
16	0xbc98251f	-0.018572388
17	0x3cf35a7a	0.029706229
18	0x3d022482	0.031773098
19	0xbc01c5f5	-0.007920732
20	0xbd78d22e	-0.060747318
21	0x3d40c26b	0.04706041
22	0x3cb27032	0.021782015
23	0x3ce79fbb	0.028274408
24	0xbd38b0ac	-0.045090362
25	0xbd17eb57	-0.037089672
26	0x3d53eb9f	0.051738378
27	0xbdcd64d0	-0.10028994
28	0xbd8f446f	-0.069954745
29	0xbd31f776	-0.043448888
30	0x3cb51ee6	0.02210946
31	0x3d632011	0.055450503
32	0xbc8b1ad2	-0.016980562
33	0x3d28e0d6	0.041230045
34	0xbd5641de	-0.05230891
35	0x3d80065a	0.062512115
36	0x3d0d1b8b	0.034450095
37	0xba5eb8b3	-0.000849615
38	0xbbf1ebb7	-0.0073828357
39	0xbc10b071	-0.008831129
40	0xbd94ac0a	-0.07259376
41	0x3d86a025	0.06573514
42	0x3d762c86	0.060101055
43	0x3d8f742e	0.070045814
44	0xbd1b376c	-0.03789465
45	0x3c0a501b	0.00844195
46	0xbc8be1e1	-0.01707548
47	0xbd8dea48	-0.06929451
48	0x3d809158	0.06277722
49	0x3d43558b	0.047689002
50	0x3cd74659	0.026278662
51	0xbbb1fa29	-0.0054314327
52	0x3d2bba48	0.0419257
53	0x3cf3e645	0.029772887
54	0x3d325666	0.043539427
55	0xbbb1dcc0	-0.005427927
56	0xbd81e929	-0.063433
57	0x3c9c7d6f	0.01910278
58	0x3dafd8ac	0.08586249
59	0xbd7e7d80	-0.062131405
60	0xbcea206f	-0.028579919
61	0x3c18b386	0.0093201455
62	0xbc964922	-0.01834542
63	0x3d83128c	0.06400022
64	0x3cfc2cb8	0.030783042
65	0x3d5ea22a	0.05435387
66	0xbc434c95	-0.011920114
67	0x3d0ebba0	0.034846902
68	0xbd86d36e	-0.06583296
69	0xbe5136c0	-0.20431042
70	0x3bd00db4	0.00634929
71	0xbe0337ea	-0.12814298
72	0x3cb42f7a	0.021995295
73	0xbd305246	-0.043047212
74	0x3d59d203	0.0531788
75	0x3bf04cc7	0.0073333713
76	0x3c88bf81	0.016692879
77	0xbd26d3bd	-0.040729273
78	0xbd89aaae	-0.06722008
79	0x3b7da8d5	0.0038705368
80	0x3db06020	0.086120844
81	0xbc223ef8	-0.009902708
82	0xbdb2d60b	-0.08732232
83	0xbd0286fb	-0.03186701
84	0x3e0e2a5e	0.1388335
85	0xbd34b569	-0.04411832
86	0xbd966870	-0.073441386
87	0xbda68226	-0.081302926
88	0xbd7fde5f	-0.06246793
89	0xbc73d6fe	-0.014882801
90	0xbd7d575c	-0.06185089
91	0xbde8d242	-0.113682285
92	0xbcd2a66f	-0.025714127
93	0xbcb51d00	-0.022108555
94	0x3dcf58be	0.10124348
95	0x3d835ba4	0.064139634
96	0x3cdd8352	0.027040157
97	0x3d424542	0.04742933
98	0x3d8acd5b	0.0677745
99	0x3d3d3981	0.046197418
100	0x3d919fb8	0.07110542
101	0xbd4eb613	-0.05046661
102	0xbd3cc54e	-0.046086602
103	0xbc304cce	-0.010760499
104	0xbbd956d9	-0.0066326675
105	0xbcf2eba9	-0.029653387
106	0xbd09c63b	-0.033636313
107	0xbda01387	-0.078162245
108	0x3d354dc6	0.044263624
109	0x3d80ad20	0.06283021
110	0xbd9545c1	-0.07288695
111	0x3d283b5a	0.041072227
112	0x3da80705	0.08204464
113	0xbce44e68	-0.027869418
114	0xba80f340	-0.0009838119
115	0xbc9d75e6	-0.019221257
116	0xbdb26e0a	-0.087123945
117	0x3d7f1d09	0.06228355
118	0x3ddb3a09	0.10704429
119	0xbd9dbd5c	-0.07702133
120	0xbcc97b9a	-0.02459507
121	0x3cabfad6	0.020993631
122	0x3b87d20b	0.004144912
123	0x3d8e1bfd	0.06938932
124	0xbdf02955	-0.117266335
125	0x3cdbaf72	0.026817057
126	0xbc929100	-0.017891407
127	0x3be2a2f1	0.006916397
128	0xbde41a3b	-0.111378156
129	0x3d90ce71	0.070706256
130	0x3c70ef09	0.014705428
131	0xbd88faf7	-0.06688493
132	0x3cb6310e	0.022240188
133	0x3d0e1bcb	0.034694474
134	0xbd16067f	-0.03662729
135	0x3df925d0	0.12165415
136	0x3d63c688	0.055609256
137	0x3d5049de	0.050851695
138	0x3d38e0ae	0.045136146
139	0xbd77409a	-0.060364343
140	0xbb4bbd64	-0.0031088227
141	0x3d25dfc2	0.040496595
142	0xbd474269	-0.048647318
143	0xbe8b9da2	-0.27268702
144	0x3d036db6	0.03208705
145	0x3daa9ea5	0.0833104
146	0xbd4c222f	-0.049837288
147	0x3c232d30	0.009959504
148	0xbd468777	-0.048469033
149	0xbd325551	-0.043538395
150	0xbda35f9d	-0.07977221
151	0x3da11355	0.078650154
152	0xbd96f50c	-0.07370958
153	0xbe1cc4f7	-0.15309511
154	0x3d511146	0.051041864
155	0x3db39d1b	0.087702
156	0xbc8eb8f8	-0.017422184
157	0x3e155a68	0.14585268
158	0x3d6f7b46	0.058467172
159	0xbd1209ab	-0.03565375
160	0xbd871d88	-0.065974295
161	0xbdf9fcdf	-0.122064345
162	0x3d9c29cf	0.07625162
163	0xbca59e18	-0.020216987
164	0xbcc7ebb0	-0.024404377
165	0x3beab617	0.00716282
166	0x3e3aef5a	0.18255368
167	0xbec6cb9c	-0.38827217
168	0x3d513100	0.05107212
169	0xbc664114	-0.014053602
170	0x3db775c3	0.08958008
171	0x3d92756c	0.07151303
172	0xbd0c6f56	-0.034285866
173	0xbec5859a	-0.38578492
174	0xbd5ca16e	-0.05386489
175	0xbd9f17a7	-0.07768183
176	0xbdfb3490	-0.12265885
177	0x3d88458c	0.0665389
178	0x3c1a75c8	0.009427495
179	0x3ab6d719	0.0013949602
180	0xbc20f9d7	-0.009825191
181	0xbdc1bc0e	-0.09459697
182	0xbb082552	-0.0020774198
183	0x3da0133b	0.07816168
184	0xbc17a614	-0.009255905
185	0xbd305ce5	-0.04305734
186	0x3d503a4c	0.050836846
187	0xbd4aa33c	-0.04947208
188	0xbc82323a	-0.01589309
189	0xbdb1a939	-0.08674855
190	0x3d79a69e	0.060949914
191	0xbcdbe03d	-0.026840324
192	0x3d99d073	0.07510462
193	0x3d8f4abc	0.06996676
194	0x3d62aecf	0.05534249
195	0x3d5b938b	0.053607505
196	0x3dd5cab7	0.104390554
197	0x3ef2dcd2	0.47434098
198	0xbd715408	-0.05891803
199	0xbd473afa	-0.04864023
200	0xbc764692	-0.015031474
201	0xbd669fd2	-0.05630476
202	0xbd892f64	-0.06698492
203	0xbbb85ffc	-0.0056266766
204	0xbcc313d2	-0.023813162
205	0x3c3e8f69	0.011630871
206	0x3ca5ffd5	0.020263592
207	0xbd583556	-0.05278524
208	0xbc62ef08	-0.013850935
209	0xbd617b9f	-0.055049535
210	0xbe119c4b	-0.14219777
211	0xbd890af0	-0.06691539
212	0xbdfd525f	-0.12369227
213	0x3d9821a2	0.0742829
214	0xbd53c757	-0.051703777
215	0x39077a51	0.0001292017
216	0xbd319d91	-0.043363158
217	0xbcb938f7	-0.02261017
218	0xbc9bf125	-0.019035885
219	0xbb95b91e	-0.004569187
220	0x3c1a2d90	0.009410277
221	0x3d4ad27e	0.049517147
222	0xbc90a927	-0.017658783
223	0x3e0bfe64	0.13671261
224	0xbd6fed0c	-0.058575675
225	0xbda43c2f	-0.080192916
226	0xbcaac930	-0.020847887
227	0xbc906e5f	-0.017630754
228	0x3d1fc02e	0.039001636
229	0xbeb77c85	-0.35837188
230	0xbd228663	-0.039678942
231	0x3df86dec	0.12130341
232	0xbd3649d6	-0.04450401
233	0x3de2b900	0.11070442
234	0x3d8575cc	0.065166086
235	0x3b4b20c0	0.0030994862
236	0xbd84167d	-0.06449602
237	0xbd6489ea	-0.055795588
238	0xbddade72	-0.10686959
239	0xbc83956c	-0.01606246
240	0x3bd2b0e7	0.00642978
241	0x3cdd77b9	0.027034627
242	0x3da9294b	0.08259829
243	0xbc8cb651	-0.017176779
244	0xbe703a04	-0.23459631
245	0x3cb07878	0.021541819
246	0xbe9bc041	-0.30420116
247	0xbd66970f	-0.056296404
248	0x3de63ebb	0.11242434
249	0x3cb198b4	0.02167926
250	0x3d5a81c2	0.053346403
251	0xbdfdc90b	-0.123918615
252	0xbcae4d40	-0.02127707
253	0xbcb88763	-0.022525495
254	0x3dc4d67e	0.09611224
255	0xbd2a943f	-0.041645285

net.6.bias f4 [64]
0	0xbe10bb21	-0.14133884
1	0xbe6a0cfd	-0.22856517
2	0xbdc433d6	-0.095801994
3	0xbd3239ec	-0.04351227
4	0x3b2d5e42	0.0026453887
5	0xbe195d09	-0.14976896
6	0xbcc41a14	-0.023938216
7	0xbc6703a9	-0.014099994
8	0xbdb2a829	-0.0872348
9	0xbdcde39a	-0.10053177
10	0xbb9ca54e	-0.004780448
11	0xbde37134	-0.11105576
12	0xbd593650	-0.053030312
13	0xbda55028	-0.08071929
14	0x3bac915e	0.0052663526
15	0xbd82b01a	-0.06381245
16	0xbdca54e6	-0.09879474
17	0xbdad4d0b	-0.084619604
18	0xbc8676ab	-0.016414007
19	0xbd3b9ad2	-0.045801945
20	0xbc1d5c36	-0.009604504
21	0xbcf172c4	-0.02947367
22	0xbaca0ef8	-0.0015415838
23	0xbdb05201	-0.08609391
24	0xbd38dfb4	-0.045135215
25	0xbc903b95	-0.017606536
26	0xbe19b55c	-0.1501059
27	0xbc9c2b07	-0.019063486
28	0xbd812ae2	-0.06307007
29	0xbdb7262a	-0.08942826
30	0xbc8ab924	-0.016933985
31	0xbdf9b6d6	-0.12193076
32	0xbca47973	-0.020077443
33	0xbbf9f70f	-0.0076283286
34	0xbe039f13	-0.12853651
35	0xbde84c2d	-0.113426544
36	0xbd101696	-0.03517779
37	0xbcd9fd78	-0.026610121
38	0xbce738b3	-0.028225278
39	0xbd0398af	-0.032128032
40	0xbb77b980	-0.0037799776
41	0xbdc37912	-0.09544577
42	0xbcd77c66	-0.026304435
43	0x3b536e4a	0.0032261782
44	0xbdbbb418	-0.091652095
45	0xbd40aed5	-0.047041733
46	0x3ca6a5df	0.020342765
47	0xbd944da4	-0.07241371
48	0xbe047a4f	-0.12937282
49	0xbd994f14	-0.07485786
50	0xbcb01c20	-0.021497786
51	0xbd0ca8e9	-0.034340773
52	0xbd0f147d	-0.03493165
53	0xbe0b094a	-0.13577762
54	0x3bdf9a0b	0.0068237833
55	0x3b1bcacb	0.0023771997
56	0xbc125a65	-0.008932685
57	0xbcf0269a	-0.029315282
58	0xbe041e98	-0.12902296
59	0xbdc0487b	-0.093888246
60	0xbc5142f2	-0.012772309
61	0xbd9bf773	-0.076155566
62	0xbdcd0fe0	-0.100127935
63	0xbe093ad2	-0.13401344

net.8.weight f4 [1, 64]
0	0xbbce83fb	-0.0063023544
1	0xbcae6b2a	-0.021291334
2	0x3d98a91e	0.074541315
3	0xbd378cff	-0.0448122
4	0xb9860cf9	-0.00025568137
5	0xbc83552a	-0.01603182
6	0x3c3fcf93	0.011707204
7	0x3a41abec	0.0007387984
8	0xbc279484	-0.01022828
9	0xbcd4a320	-0.02595669
10	0xbcd82f01	-0.0263896
11	0xbbf313d1	-0.007418134
12	0xbd368fe8	-0.044570833
13	0xbda5db64	-0.08098486
14	0xba75f881	-0.0009383038
15	0xbbcaa8f0	-0.0061846897
16	0x3bfa75ef	0.0076434533
17	0xbdc5f044	-0.09664968
18	0xbcc55f6e	-0.024093356
19	0xbd9195e1	-0.07108665
20	0xbb1bdb5c	-0.0023781871
21	0xbd839170	-0.064242244
22	0xbb61d176	-0.0034457124
23	0xbd19820d	-0.03747754
24	0xbcdeeffb	-0.027214041
25	0x3d8cd9d3	0.06877484
26	0x3c258aa4	0.010103855
27	0x3c469d8d	0.012122524
28	0x3cb66d23	0.022268837
29	0xbd38f159	-0.045152042
30	0x3d98155a	0.074259475
31	0x3c17e113	0.0092699705
32	0x3cbf8f64	0.023383804
33	0xbb1ef91c	-0.0024257367
34	0xbc8d72a8	-0.017266586
35	0x3b15e017	0.0022869164
36	0xbd0d6c40	-0.034527063
37	0x3c12373c	0.008924302
38	0xbd213501	-0.03935719
39	0xbc95fbbf	-0.018308518
40	0x3dc6baae	0.09703575
41	0x3d29bd89	0.04144052
42	0xbc4b5194	-0.012409586
43	0xbb213dd9	-0.0024603514
44	0xbc9619c9	-0.018322842
45	0x38f955b1	0.000118892065
46	0xbdd325e4	-0.103099614
47	0x3db48618	0.08814639
48	0xbaf5a54a	-0.0018741277
49	0xbbbbdf07	-0.005733374
50	0x3dc06aed	0.093953945
51	0x3c13bcbe	0.009017168
52	0xbae7d154	-0.0017686286
53	0xbd80307b	-0.06259247
54	0xbb1ba560	-0.0023749694
55	0x3ac0b304	0.0014701788
56	0x3b112e4f	0.0022152846
57	0x3dde31e4	0.1084936
58	0x3c834ae2	0.016026918
59	0xbcca5ae8	-0.02470155
60	0xbba3a039	-0.0049934653
61	0x3cde505a	0.027137924
62	0xbd52206c	-0.05130045
63	0x3d24f750	0.040274918
